released_models/model.tar (torch, 286534 bytes, 26 tensors)

a_min f4 [36]
00000000: c3f5 c8bf c3f5 c8bf c3f5 c8bf c3f5 c8bf
00000010: 0000 80bf 9a99 99bf c3f5 48c0 0000 0000
00000020: 6f12 83ba 9643 0bbe 0000 0000 0000 0000
00000030: 0000 0000 0000 0000 cdcc 4cbe 9643 0bbe
00000040: 0000 0000 0000 0000 0000 0000 0000 0000
00000050: 0000 0080 9643 0bbe 0000 0000 0000 0000
00000060: 0000 0000 0ad7 23bc 0000 80bf 0000 0080
00000070: c3f5 c8bf 8716 c9bf 0000 0000 0000 0000
00000080: 9643 0bbe 0000 0000 0000 0000 0000 0000
-1.57 -1.57 -1.57 -1.57 -1.0 -1.2 -3.14 0.0
-0.001 -0.136 0.0 0.0 0.0 0.0 -0.2 -0.136
0.0 0.0 0.0 0.0 -0.0 -0.136 0.0 0.0
0.0 -0.01 -1.0 -0.0 -1.57 -1.571 0.0 0.0
-0.136 0.0 0.0 0.0

a_max f4 [36]
00000000: c3f5 c83f 0000 0000 c3f5 c83f c3f5 c83f
00000010: 0000 803f 9a99 993f 0000 0000 6f12 833a
00000020: 6f12 833a 9643 0b3e 8716 c93f 8716 c93f
00000030: 8716 c93f 0ad7 233c cdcc 4c3e 9643 0b3e
00000040: 8716 c93f 8716 c93f 8716 c93f cdcc 4c3e
00000050: d7a3 303f 9643 0b3e 8716 c93f 8716 c93f
00000060: 8716 c93f 0ad7 233c 0000 803f 0000 803f
00000070: 0000 0000 cdcc ccbd cdcc 4c3e 6666 663f
00000080: 9643 0b3e 8716 c93f 8716 c93f 8716 c93f
1.57 0.0 1.57 1.57 1.0 1.2 0.0 0.001
0.001 0.136 1.571 1.571 1.571 0.01 0.2 0.136
1.571 1.571 1.571 0.2 0.69 0.136 1.571 1.571
1.571 0.01 1.0 1.0 0.0 -0.1 0.2 0.9
0.136 1.571 1.571 1.571

a_mean f4 [36]
00000000: 0000 0000 c3f5 48bf 0000 0000 0000 0000
00000010: 0000 0000 0000 0000 c3f5 c8bf 6f12 033a
00000020: 0000 0000 0000 0000 8716 493f 8716 493f
00000030: 8716 493f 0ad7 a33b 0000 0000 0000 0000
00000040: 8716 493f 8716 493f 8716 493f cdcc cc3d
00000050: d7a3 b03e 0000 0000 8716 493f 8716 493f
00000060: 8716 493f 0000 0000 0000 0000 0000 003f
00000070: c3f5 48bf 54e3 55bf cdcc cc3d 6666 e63e
00000080: 0000 0000 8716 493f 8716 493f 8716 493f
0.0 -0.785 0.0 0.0 0.0 0.0 -1.57 0.0005
0.0 0.0 0.7855 0.7855 0.7855 0.005 0.0 0.0
0.7855 0.7855 0.7855 0.1 0.345 0.0 0.7855 0.7855
0.7855 0.0 0.0 0.5 -0.785 -0.8355 0.1 0.45
0.0 0.7855 0.7855 0.7855

scale f4 [36]
00000000: c3f5 c83f c3f5 483f c3f5 c83f c3f5 c83f
00000010: 0000 803f 9a99 993f c3f5 c83f 6f12 033a
00000020: 6f12 833a 9643 0b3e 8716 493f 8716 493f
00000030: 8716 493f 0ad7 a33b cdcc 4c3e 9643 0b3e
00000040: 8716 493f 8716 493f 8716 493f cdcc cc3d
00000050: d7a3 b03e 9643 0b3e 8716 493f 8716 493f
00000060: 8716 493f 0ad7 233c 0000 803f 0000 003f
00000070: c3f5 483f ba49 3c3f cdcc cc3d 6666 e63e
00000080: 9643 0b3e 8716 493f 8716 493f 8716 493f
1.57 0.785 1.57 1.57 1.0 1.2 1.57 0.0005
0.001 0.136 0.7855 0.7855 0.7855 0.005 0.2 0.136
0.7855 0.7855 0.7855 0.1 0.345 0.136 0.7855 0.7855
0.7855 0.01 1.0 0.5 0.785 0.7355 0.1 0.45
0.136 0.7855 0.7855 0.7855

a_std f4 [36]
00000000: 1332 afc0 da1f b9c0 99dc adc0 7259 adc0
00000010: 8af4 adc0 fc78 a7c0 21f0 a4c0 a836 25c0
00000020: f570 10c0 e2a5 53c0 a9a7 7ec0 acec 51c0
00000030: 7033 46c0 93ae 21c0 d7a3 49c0 c466 41c0
00000040: a54d 5bc0 4b9a 4dc0 b2bd 32c0 8ba2 89c0
00000050: f52d 86c0 264c 39c0 b584 83c0 7694 6bc0
00000060: 4924 45c0 375b 2ac0 9109 6dc0 d7c1 5dc0
00000070: 80b6 70c0 c890 47c0 a052 14c0 90ec 1cc0
00000080: 80bb 20c0 07a1 20c0 e6be 2cc0 5b04 27c0
-5.4748626 -5.785138 -5.4331784 -5.4171686 -5.436101 -5.2335186 -5.1543126 -2.581461
-2.2568944 -3.3069997 -3.9789832 -3.2800703 -3.0968895 -2.5262802 -3.150625 -3.0218973
-3.426614 -3.2125423 -2.792828 -4.3010917 -4.19311 -2.8952727 -4.1099496 -3.6809363
-3.0803397 -2.6618173 -3.703709 -3.464956 -3.761139 -3.1182117 -2.317543 -2.4519386
-2.511444 -2.5098283 -2.6991515 -2.6096408

s_norm.mean f4 [425]
00000000: c30e fe3a 3cf9 82b9 ff8a 9e3d fb46 843e
00000010: ffdc 393f d967 393f 3c0c a43b b3a1 3a3e
00000020: b8dd 9b3d eb24 083f 21ea 453f 6557 ff3e
00000030: 4f49 a73d eb94 c53e 1f00 533d 7965 793f
00000040: 3c26 093f 2220 223f 63a4 d1b9 70bd 003f
00000050: 2b45 a83d 26cd c3be 66d7 cbbd 2dac ef3d
00000060: e756 d13e ad07 903c f7ab 5b3f c926 4a3f
00000070: b3b4 2a3f 6b1d af39 8d58 49b9 7f0d 3c3c
00000080: 9f9a 58bb d507 e9ba 53d2 a23c 4184 8039
00000090: 0050 3f39 89fb c8ba b174 4e3c 7cf3 413b
000000a0: 8d6c 973c 1f40 5f3b 29f0 653b 7b13 a83c
000000b0: 2b46 d8ba db4b 423b 737b 103c a895 47b9
000000c0: 89cd 85bb b58e feba aa1c 213b e8d2 a1b9
000000d0: dbb3 ce3b d512 03ba c2b6 11b9 1ac1 3eb6
000000e0: c94a 8237 9d6b 6433 4df4 403e 902b 10bf
000000f0: a34e 9c3e 01fa 1fbe f9ab 283e 1e2e d6bc
00000100: deab 7bbf b6ed 9a3c 90de b8bc 207a 0d3d
00000110: 3b65 b7bc f652 933c 1d8f 923c 96d1 553c
00000120: 6b08 413e bf4e 10bf 4883 9c3e 04c9 20be
00000130: a3e7 283e e775 d3bc dec6 7bbf 0b34 9d3c
00000140: 8b7b b4bc ad5d 0a3d b845 adbc 5b83 833c
00000150: e96e 8f3c a59d 533c a83a 413e 836b 10bf
00000160: 77b6 9c3e be11 21be 421d 293e 1af0 d1bc
00000170: e3d5 7bbf 1c2f 9e3c 5c24 b2bc f6e2 083d
00000180: 563b a7bc 867d 773c 5690 8d3c c80b 533c
00000190: fd6c 413e e487 10bf 0be9 9c3e f357 21be
000001a0: 8f4f 293e 956e d0bc 88e4 7bbf b30a 9f3c
000001b0: cff4 afbc 5d6b 073d f22a a1bc 4c28 683c
000001c0: efc2 8b3c 58ac 523c 1b9f 413e 02a4 10bf
000001d0: ef1a 9d3e 9c9b 21be a27e 293e 4ff1 cebc
000001e0: 2bf3 7bbf ebc1 9f3c 3cdf adbc 69ee 053d
000001f0: 84fb 9abc 1adb 583c b5fa 893c 4058 523c
00000200: 31d1 413e e8bf 10bf 0c4c 9d3e c0dc 21be
00000210: 95aa 293e fc77 cdbc ff00 7cbf 7a55 a03c
00000220: 20e3 abbc d069 043d 3ab6 94bc d2a3 493c
00000230: d631 883c c80b 523c 1903 423e 9ddb 10bf
00000240: a17c 9d3e 7d1b 22be 89d3 293e c202 ccbc
00000250: 900e 7cbf 36c3 a03c 08fa a9bc f9d9 023d
00000260: 605e 8ebc d281 3a3c 7a64 863c ebbe 513c
00000270: bc3f 80b8 c806 003a 1e3f c1b9 e5fd 6c3a
00000280: 3ee5 9eb9 ce4d 08ba 619e 9039 60f2 8bb9
00000290: 8d32 00ba 6552 583a ee33 c2ba c54e 093b
000002a0: 7862 0f3a a1ae e638 414b 083f 5e04 013f
000002b0: 64bc f33e 5198 c13e eb2e 073d f52f 73bd
000002c0: 92fa b63d 26fa 0b3f b89e 043f 6517 fa3e
000002d0: a34e c73e 6733 0e3d e5ae 74bd e815 b63d
000002e0: 184e 783f eb02 1f39 d226 0ab9 d867 11b9
000002f0: be4e d3ba e577 e7b9 51cb be3a 563b 08bb
00000300: f6a0 bbba 7668 503a 928a ccb7 a1cf 0a3a
00000310: 0ef2 c239 0000 0000 0000 0000 0000 0000
00000320: 0000 0000 0000 0000 0000 0000 563b 08bb
00000330: f6a0 bbba 7668 503a 928a ccb7 a1cf 0a3a
00000340: 0ef2 c239 06ac f93e b5a8 e93e 9fff d13e
00000350: 5026 ba3e 239e 153d fddc 62bd 9d75 f23d
00000360: 7191 fd3e 2cc1 fa3e fb1e dd3e 6bd5 bd3e
00000370: 11fb 183d b527 64bd 0385 ef3d 78a3 733f
00000380: 6344 9f3c 3254 243b c5cf 983b 7764 10ba
00000390: b2b3 7eb9 1a3e 6d3a 8da0 faba 14cd d8ba
000003a0: 2129 2439 a8a6 0e3c a54d 9b3b 8d22 c9ba
000003b0: 5ca8 0eb8 6f27 fbb8 824f 8cb9 0a08 383c
000003c0: 3773 ecba 4cfe cbb9 1d91 f5ba fad5 c9ba
000003d0: 324d b639 c374 f6ba c06d e33b c5c1 7aba
000003e0: 3ea5 dd3c a6ad 013d 0000 0000 7d52 313e
000003f0: 7e00 0b3e ee05 0e3e 0000 0000 3ea5 dd3c
0.0019383061 -0.00024981226 0.07741355 0.25835404 0.7260284 0.72424084 0.0050063413 0.18225746
0.07610649 0.5318133 0.7731038 0.49871364 0.081682794 0.38590178 0.051513787 0.9742046
0.53573966 0.6333028 -0.00039986064 0.5028906 0.08216318 -0.38242453 -0.09953193 0.11702762
0.40886614 0.017581785 0.8580927 0.7896543 0.66681975 0.0003340052 -0.00019201841 0.011477827
-0.0033051146 -0.0017778823 0.019875681 0.000245126 0.00018244982 -0.0015333752 0.012601064 0.002959459
0.018484378 0.0034065319 0.0035085774 0.020517102 -0.0016500404 0.0029647264 0.008818495 -0.0001903387
-0.0040833396 -0.0019421192 0.0024583736 -0.0003086545 0.0063080615 -0.00050000596 -0.0001389636 -2.8424606e-06
1.5532032e-05 5.318326e-08 0.18843193 -0.5631647 0.30528745 -0.15622713 0.16471852 -0.026145037
-0.98309124 0.018912178 -0.022567064 0.034540296 -0.022387138 0.017983895 0.017890507 0.013050457
0.18850867 -0.56370157 0.3056891 -0.15701681 0.16494612 -0.025813056 -0.9835032 0.019189855
-0.022031566 0.033780742 -0.021151409 0.016053846 0.01750894 0.012916003 0.18870032 -0.5641405
0.3060796 -0.15729424 0.16515067 -0.025627185 -0.9837324 0.019309573 -0.021745853 0.03341957
-0.020414036 0.015105611 0.017280739 0.012881227 0.18889232 -0.5645735 0.30646548 -0.15756206
0.16534255 -0.025443355 -0.98395586 0.019414281 -0.021479039 0.033061374 -0.019673798 0.014169764
0.017060725 0.012858473 0.1890835 -0.56500256 0.3068461 -0.15782017 0.16552213 -0.02526155
-0.9841792 0.019501647 -0.02122461 0.03269807 -0.01891876 0.013235832 0.01684318 0.012838423
0.18927456 -0.56542826 0.30722082 -0.15806866 0.16568978 -0.025081627 -0.9843902 0.019572008
-0.020982325 0.032327473 -0.018153299 0.012307124 0.016625326 0.012820192 0.18946494 -0.56585103
0.30759147 -0.15830798 0.165846 -0.024903659 -0.9845972 0.019624334 -0.020749107 0.031946156
-0.017378986 0.011383491 0.016405333 0.012801866 -6.115387e-05 0.0004883823 -0.00036858855 0.0009040519
-0.00030306907 -0.0005199582 0.00027583822 -0.0002669273 -0.0004890345 0.0008252024 -0.0014816502 0.0020951491
0.000546969 0.00010999782 0.5323983 0.5039729 0.47604668 0.3781152 0.03300373 -0.059371907
0.08934511 0.5467857 0.51804686 0.48845974 0.38927183 0.03471699 -0.059737105 0.08890897
0.9699416 0.00015164509 -0.00013175167 -0.00013866962 -0.001612149 -0.00044149082 0.0014556443 -0.002078732
-0.0014314938 0.0007950136 -2.4383222e-05 0.00052952213 0.00037182908 0.0 0.0 0.0
0.0 0.0 0.0 -0.002078732 -0.0014314938 0.0007950136 -2.4383222e-05 0.00052952213
0.00037182908 0.48764056 0.45636526 0.41015336 0.36357355 0.036527764 -0.055386532 0.11838839
0.49525025 0.48975503 0.431877 0.37076887 0.03734881 -0.05570193 0.11695292 0.9517131
0.019441789 0.0025074598 0.00466344 -0.00055081345 -0.0002429027 0.00090500864 -0.0019121334 -0.001654061
0.0001565558 0.008706726 0.0047394806 -0.001534538 -3.4012235e-05 -0.00011975958 -0.0002676212 0.011232385
-0.0018039708 -0.00038908643 -0.0018735264 -0.0015398853 0.0003477126 -0.0018803108 0.0069405735 -0.0009565617
0.027056333 0.031659745 0.0 0.17316623 0.13574407 0.1386945 0.0 0.027056333

s_norm.std f4 [425]
00000000: 9abb 313d 3006 c73c 0b23 3b3e 2b2d 293e
00000010: 269d 803e 00a0 943e 54b2 bb3c ce00 443d
00000020: 59bf 273e 2852 583e 0903 913e 21ae 9d3e
00000030: 8e25 073e 4e84 ef3d 42ba 6e3e 140c 323e
00000040: 3e41 533e 7257 953e 64c5 573d 1bee 073e
00000050: 62f1 ed3d 63e4 333e 4ee7 b83d 5a93 b83d
00000060: dc6d 1e3d 946d ba3c 4500 e63c 323a d43c
00000070: cca3 be3c 5827 513e b45a f63d d4eb f63e
00000080: 3cee ce3e 9752 0f3f 2e2a 1d3f 7759 013e
00000090: 57a6 923e 314a 043f 7c07 0b3f 58c1 253f
000000a0: bae3 1d3f 729e b23e fd88 b13e 4097 183f
000000b0: 011b c63e 63ad f03e 95c7 2e3f f3bf de3e
000000c0: b477 c93e d696 9f3e 16d7 e43e b2c5 bd3e
000000d0: cef3 853e 7cc1 c83d 662d 073d 4c40 473d
000000e0: 2477 013d eb4d 913c a0cf 133f 0b6c d53e
000000f0: c78a 243f 63a0 f73e 86d6 073f 5fc3 b63e
00000100: 95e1 c33e b75b 293f afb2 0d3f 95ec 2a3f
00000110: d662 3f3f 09a2 3b3f 29af 0b3f 2856 073f
00000120: 8ddb 133f 9135 d53e ef86 243f eb6e f73e
00000130: 0abc 073f f5b0 b63e fcb0 c33e f59c 283f
00000140: 26e7 0d3f 6504 2b3f e4c5 3e3f 1b97 393f
00000150: 6ef5 063f bed5 033f 93db 133f e5f8 d43e
00000160: f477 243f 3136 f73e 6ba7 073f f88a b63e
00000170: a382 c33e 4c3d 283f 38ca 0d3f 90be 2a3f
00000180: 1169 3e3f d20a 393f b5b8 063f 51b1 033f
00000190: dfdb 133f 97bc d43e 3f69 243f dd00 f73e
000001a0: cb94 073f fc63 b63e b354 c33e 5edf 273f
000001b0: 37af 0d3f 9d77 2a3f fa0e 3e3f 3b83 383f
000001c0: ab7e 063f 7f8f 033f 66dc 133f 6380 d43e
000001d0: 055b 243f 22cf f63e f183 073f ee3b b63e
000001e0: 2127 c33e 4e82 273f 6594 0d3f 442e 2a3f
000001f0: 37b7 3d3f 87ff 373f 7f46 063f 9a6d 033f
00000200: 30dd 133f 1544 d43e 344d 243f ada0 f63e
00000210: d974 073f c412 b63e 51fb c23e 7326 273f
00000220: f179 0d3f 33e3 293f e061 3d3f c87f 373f
00000230: 1010 063f 404c 033f 2dde 133f b307 d43e
00000240: b13f 243f 3a75 f63e 5967 073f 92e8 b53e
00000250: 24d1 c23e f0ca 263f 0660 0d3f 9c95 293f
00000260: 2a0e 3d3f 2c03 373f a5dc 053f 1b2c 033f
00000270: adea 923d d0a8 7e3d 0fd4 963d 9609 a53d
00000280: 6051 a43d ce8d 813d 88aa 7c3d bbae c53e
00000290: 466b c03e c8f0 f03e 3459 e43e 5309 de3e
000002a0: 4159 d93e 83a4 d43e 00ef 493d 0eb8 4c3d
000002b0: 0632 453d 9210 563d 746e d13c bccd 183d
000002c0: ff16 123d 325e b43c 33ea b23c 1257 b13c
000002d0: 6cad b23c e260 b83c ca8c be3c 6017 c13c
000002e0: 209a fb3c 5282 563d def2 4b3d 0e95 663d
000002f0: 5474 ce3c 24ae 183d ccbe 113d ee43 203e
00000300: 5579 3b3e 1a57 263e 4568 b93e b3da c93e
00000310: b2a0 cf3e 0ad7 233c 0ad7 233c 0ad7 233c
00000320: 0ad7 233c 0ad7 233c 0ad7 233c ee43 203e
00000330: 5579 3b3e 1a57 263e 4568 b93e b3da c93e
00000340: b2a0 cf3e dc77 1d3e 9368 1d3e 5826 193e
00000350: 2942 233e 10c2 fe3c e769 0c3d ce3c 3c3d
00000360: 89c3 d33d a7df e33d e420 f13d e1ba f13d
00000370: 5816 c13c 5a79 c33c c00c 513d 1e30 493d
00000380: d269 553e e137 873d 11b2 cf3d 1972 f13c
00000390: fc8b 0a3d 0de7 173d d095 2e3e ff8d 523e
000003a0: b151 2a3e 23eb 023f b737 173f 30f1 e13e
000003b0: 30ff 673d 8617 803d 9de5 3f3e 66db 5b3f
000003c0: bd81 c53e c669 5b3e 3fa5 2e3e cdfc 523e
000003d0: 0abf 523e d0fa 593f c22e 1a3f 2028 e53e
000003e0: aaba 7f3e 5445 a43e 0ad7 233c 35c9 e63e
000003f0: 5391 c43e 81a0 aa3e 0ad7 233c aaba 7f3e
0.0433918 0.024294943 0.18275087 0.16521136 0.25119895 0.2902832 0.022912182 0.04785233
0.16381587 0.2112509 0.28322628 0.30796912 0.1319792 0.11695157 0.23313239 0.1738742
0.20630357 0.29168278 0.05267848 0.13274424 0.11618306 0.17567591 0.09028493 0.0901248
0.03867899 0.022757329 0.0280763 0.025906656 0.023271464 0.20425165 0.12029019 0.48226798
0.40416133 0.559854 0.61392486 0.12631784 0.28642532 0.5167571 0.54308295 0.64748144
0.6167561 0.3488651 0.34674826 0.5960579 0.38692477 0.47007284 0.6827329 0.4350582
0.3934914 0.31169766 0.44695348 0.37064892 0.2616257 0.09802529 0.03300228 0.048645303
0.031607762 0.01773735 0.57738686 0.41683993 0.6427426 0.48364553 0.5306171 0.3569593
0.38258043 0.6615557 0.55350775 0.66767246 0.74760187 0.7329412 0.5456415 0.5286584
0.5775688 0.4164243 0.6426839 0.4832681 0.530213 0.35681883 0.38220966 0.658645
0.5543083 0.6680358 0.7452071 0.72496194 0.52718246 0.5149802 0.5775692 0.4159614
0.64245534 0.48283532 0.52989835 0.356529 0.38185605 0.6571853 0.55386686 0.66697025
0.7437907 0.72282135 0.5262559 0.5144244 0.5775737 0.41550133 0.6422309 0.48242846
0.52961415 0.35623157 0.38150558 0.65575206 0.5534548 0.66588765 0.742416 0.7207524
0.5253703 0.5139083 0.57758176 0.415042 0.64201385 0.48204905 0.529357 0.35592598
0.3811579 0.65433204 0.5530456 0.66476846 0.7410769 0.7187428 0.5245132 0.51339114
0.5775938 0.41458192 0.641803 0.4816946 0.5291267 0.35561192 0.38082364 0.65293044
0.5526419 0.66362303 0.7397747 0.71679354 0.5236826 0.51288223 0.5776089 0.41412124
0.64159685 0.48136312 0.5289207 0.35529 0.38050187 0.6515341 0.55224645 0.6624391
0.7384974 0.71489215 0.522898 0.51239175 0.07173667 0.06217271 0.07364666 0.08058469
0.080233335 0.06325875 0.06168607 0.3860987 0.37581843 0.47058702 0.44599307 0.4336649
0.42450908 0.41531762 0.049300194 0.049980216 0.04814341 0.052261896 0.025565363 0.03730558
0.035666462 0.022017572 0.02184019 0.021647964 0.02181121 0.022507135 0.023260493 0.023570716
0.030713141 0.052370377 0.049792163 0.056294493 0.025201954 0.03727545 0.03558235 0.15650913
0.18308003 0.16244164 0.36212364 0.39424667 0.40552288 0.01 0.01 0.01
0.01 0.01 0.01 0.15650913 0.18308003 0.16244164 0.36212364 0.39424667
0.40552288 0.15377754 0.15371923 0.14956033 0.15943207 0.031098396 0.034280684 0.045956425
0.1034003 0.11126643 0.117738515 0.118032224 0.023570225 0.023861576 0.05103755 0.049118154
0.20841148 0.06602455 0.10141385 0.029473351 0.033824906 0.03708558 0.17049336 0.2056198
0.16632725 0.5114004 0.5906939 0.44129324 0.05663985 0.06254487 0.18739934 0.8588165
0.38575545 0.21427068 0.17055224 0.20604248 0.20580688 0.85148335 0.60227597 0.44757175
0.2497355 0.32084143 0.01 0.45075384 0.38392124 0.3332558 0.01 0.2497355

s_norm.mean_sq f4 [425]
00000000: aba3 923a 4e56 5639 79c8 123d f208 ba3d
00000010: d6d5 153f ae63 1a3f aa1a 4939 c4ed 0d3d
00000020: 4f44 f13c 298b a53e 9c1e 2c3f ebcc ac3e
00000030: ba8b b03c 1a35 243e 25cd 563d 82d6 793f
00000040: c3ae a63e 4df9 f53e 2fc3 ee3a b832 893e
00000050: 7caa 933c a2dd 313e 35f5 853c 27c9 a43c
00000060: 9f06 2c3e 2365 f739 1695 3c3f d0b1 1f3f
00000070: 11c0 e33e c58e 1a3d 5c4b 473c 5d86 643e
00000080: 621a 1f3e a5cc 9a3e 0bf1 ba3e 86ac 5d3c
00000090: 5f7d 9c3d f67b 833e 8494 913e 8812 d03e
000000a0: 54ab bc3e d931 eb3d 6644 e83d ad11 b03e
000000b0: 1d7c 113e 8cc1 583e 62c1 e73e be02 393e
000000c0: c09c 163e 726b ba3d 4f84 433e 7b30 053e
000000d0: 6cc0 813d d3e8 fd3b eeb4 0a3a 2fc0 c33a
000000e0: acc9 f439 4019 7b38 a601 b73e f220 f73e
000000f0: 5eb4 fc3e 89b7 7e3e 4faa 983e 95f0 f73d
00000100: f779 8d3f 338a d93e 8281 973e 5a11 de3e
00000110: 2268 0b3f 32e1 053f 0e10 933e 8dd1 893e
00000120: 8220 b73e ef43 f73e cdca fc3e b29a 7e3e
00000130: 057d 983e 6eb4 f73d 778b 8d3f 899b d73e
00000140: 86f0 973e 3549 de3e 767d 0a3f f7ec 023f
00000150: 051b 893e e2a5 823e 0b2a b73e 8853 f73e
00000160: 36c4 fc3e 3746 7e3e f85a 983e 1046 f73d
00000170: 9e91 8d3f 3aa4 d63e ecaf 973e 5d8e dd3e
00000180: 17f3 093f bc22 023f 799c 883e 3a5c 823e
00000190: 3634 b73e a962 f73e febd fc3e 81f7 7d3e
000001a0: 8e3c 983e 1ed5 f63d 7d97 8d3f ddb1 d53e
000001b0: af73 973e f3d0 dc3e 0e6d 093f ea5f 013f
000001c0: bc23 883e f217 823e e33e b73e 6371 f73e
000001d0: 9eb8 fc3e e7ae 7d3e 5521 983e 6361 f63d
000001e0: 6e9d 8d3f 33c2 d43e fb37 973e 8d0d dc3e
000001f0: b5ea 083f 49a3 003f 10af 873e 99d3 813e
00000200: 274a b73e a37f f73e dcb3 fc3e cc6b 7d3e
00000210: 4309 983e c5ea f53d eaa2 8d3f 13d6 d33e
00000220: 35fd 963e f745 db3e 2e6c 083f cdd9 ff3e
00000230: 2b3e 873e 6a90 813e d855 b73e 7e8d f73e
00000240: 96af fc3e b12d 7d3e 05f4 973e 7f71 f53d
00000250: 74a8 8d3f 42eb d23e b0c3 963e 1378 da3e
00000260: 4df0 073f 1e77 fe3e a8d3 863e b84f 813e
00000270: 06c9 793b 7167 323b 88be 843b 9148 a33b
00000280: 70a3 a13b 05e9 393b c414 2f3b 5bd8 103e
00000290: fe08 093e 833b 593e 85a7 423e e3cd 373e
000002a0: 14f1 2f3e a539 283e 87ea 913e 50dc 823e
000002b0: 968c 693e 3a3b 143e 9f86 ae3a 8af0 8b3b
000002c0: 4f94 0d3c 2126 993e 807a 893e 4475 743e
000002d0: ec4f 1b3e ff7a b23a fa63 753b 9987 043c
000002e0: 84f3 703f 544f eb3a 388b cf3a ed74 0c3b
000002f0: f30c 7539 bd12 433a 071e 2c3a 46e0 af3c
00000300: 0b6c f53c e55f be3c 07ef fd3d 7630 173e
00000310: 6931 203e 0000 0000 0000 0000 0000 0000
00000320: 0000 0000 0000 0000 0000 0000 46e0 af3c
00000330: 0b6c f53c e55f be3c 07ef fd3d 7630 173e
00000340: 6931 203e 9055 843e 2d6b 6a3e 2e35 403e
00000350: 5b39 1e3e 6c3b e93a f6ad 6f3b 3ed1 7a3c
00000360: d20b 823e 0f0f 803e 5de1 4a3e 4bb8 183e
00000370: 4af9 ce3a 62ee 573b 2db1 7b3c 0744 683f
00000380: c2cb 223d f91c 4e3b e344 093c 9ef9 c639
00000390: b6d0 143a f487 403a 5c0a d33c d5c0 1c3d
000003a0: af32 c83c c0c1 803e 21a9 ac3e 097b 3e3e
000003b0: 168f 0e3b 84f1 343b 4fe7 003d 447a 383f
000003c0: 8895 103e 93e9 2a3d b131 d33c 0c6e 1d3d
000003d0: e10a 1d3d e545 353f 2aa1 b33e b410 443e
000003e0: 8868 6e3d 7bef c73d 0000 0000 eda1 653e
000003f0: 990a 223e 6766 fd3d 0000 0000 8868 6e3d
0.0011187693 0.00020440781 0.035835717 0.090837374 0.5852941 0.6030835 0.00019178787 0.03465058
0.029451517 0.32332733 0.67234206 0.3375009 0.021551002 0.16035882 0.052441735 0.9759294
0.32555208 0.48041764 0.0018216128 0.26796508 0.01802563 0.17369702 0.016352275 0.020115448
0.16799401 0.00047186864 0.7366499 0.62380695 0.44482473 0.037733812 0.012163963 0.2231688
0.15537408 0.30234256 0.36512026 0.013529902 0.076411 0.25680512 0.2843362 0.40639138
0.36849463 0.11484117 0.11341171 0.34388486 0.14207502 0.21167582 0.45264727 0.18067452
0.14708233 0.09102525 0.1909344 0.13006775 0.0633553 0.007748702 0.0005291243 0.0014934595
0.00046689564 5.986658e-05 0.35743445 0.48267323 0.4935636 0.248747 0.29817435 0.12106434
1.1052846 0.4248825 0.29590994 0.43372613 0.5445577 0.52296746 0.28723186 0.26917687
0.3576699 0.48294017 0.49373475 0.24863699 0.29782882 0.12094961 1.1058186 0.4211085
0.29675692 0.43415228 0.5409769 0.5114283 0.26778427 0.25517184 0.35774264 0.48305917
0.49368447 0.24831472 0.29756904 0.1207391 1.1060064 0.4192217 0.29626405 0.43272677
0.5388655 0.5083425 0.2668188 0.25460988 0.3578202 0.4831746 0.49363703 0.24801446
0.297337 0.12052368 1.1061856 0.4173726 0.29580447 0.43128166 0.5368203 0.5053698
0.26589763 0.25408894 0.35790166 0.48328695 0.49359602 0.24773751 0.2971293 0.12030294
1.1063669 0.41554412 0.29534897 0.42979088 0.53483135 0.50249153 0.2650075 0.2535675
0.3579876 0.48339567 0.49355972 0.24748152 0.29694566 0.12007669 1.1065342 0.41374263
0.29490057 0.42826816 0.5329007 0.49970856 0.26414618 0.25305492 0.3580768 0.48350137
0.4935271 0.24724461 0.2967836 0.11984538 1.1067033 0.41195112 0.29446173 0.42669734
0.53101045 0.49700254 0.26333356 0.25256133 0.0038114204 0.00272223 0.0040510334 0.004983016
0.0049328133 0.002836765 0.0026715258 0.14145033 0.13382336 0.21214108 0.19009216 0.17949633
0.17181808 0.1642824 0.28499243 0.2555871 0.22807536 0.14475718 0.0013315267 0.004270618
0.008641317 0.29911903 0.26851273 0.23872858 0.15167207 0.0013616978 0.0037443624 0.00808897
0.94121575 0.0017952719 0.0015834337 0.0021431998 0.00023369845 0.0007441452 0.0006565754 0.021469247
0.029958745 0.023239085 0.123991065 0.1476458 0.15643848 0.0 0.0 0.0
0.0 0.0 0.0 0.021469247 0.029958745 0.023239085 0.123991065 0.1476458
0.15643848 0.2584653 0.22892447 0.18770286 0.15451567 0.0017794198 0.0036572195 0.015308676
0.25399643 0.2501149 0.19812532 0.14914052 0.0015790847 0.0032948484 0.015362066 0.907288
0.0397451 0.0031450375 0.00837824 0.00037951482 0.00056768523 0.00073444773 0.025761776 0.038269836
0.02443823 0.2514782 0.33722785 0.18601622 0.0021752766 0.0027609775 0.031470593 0.7206156
0.14119542 0.04172666 0.02578053 0.038435027 0.038340453 0.70809776 0.35083896 0.19146997
0.058205158 0.09762474 0.0 0.22425051 0.15824355 0.12373047 0.0 0.058205158

fc.0.weight f4 [64, 425]
00000000: e5d3 263d 84ed 70bd 2056 d93d c4ae d9bc
00000010: 4ea3 89bd 729d b63d ddc1 2b3e 1df4 34bd
00000020: 5ce1 6fbe ac7a 523d 8013 45bc a6c3 613d
00000030: 9958 53be 2727 e0bd 0e7b fc3d 6cac ddbd
00000040: f1fb 1d3d af51 8e3c 6ea6 a6ba c7b5 453d
00000050: 9d70 1bbe 6c92 03be b11c 4fbd 1d19 f83c
00000060: 44d2 203c ac07 ea3d 851f 4abd 3e7e 84bc
00000070: 1dad 053d 33fd 08be e446 28be f5f3 c03d
00000080: 7d81 21bd 9d39 12bd 7e76 b1bb 5b48 40be
00000090: 5655 aa3a 21ee 56bd e7f2 083e 4509 273d
000000a0: 4e9a 28bc c28a 2dbc 733e 0e3c cd68 833d
000000b0: a6b0 593d 93bd 573b 43bc a2bc 9ca6 6abc
000000c0: 5874 d0bc 85f7 8e3d 282e 82bd 2fa9 02bd
000000d0: 2cd8 183c 72ad 373e 0511 afbd 9596 abbd
000000e0: 1dc1 183d a1bb 173d 95eb 1cbd ac9d a83c
000000f0: a314 a1bd d5dc 94bb 4f6b c3bb ae92 21bd
00000100: 03ed 8f3c 4c98 6d3d a32d a8bd a9b5 24bd
00000110: 6d0e dbbb ff1b 863d 1a66 b33c 615c 1fbd
00000120: 663b 0f3b ff58 e5bc 0cfd aebd 2011 8f3d
00000130: c6f3 fe3d 797d e2bc 886d 3a3c 575e 0fbd
00000140: 84fb eb3c 79c3 60bd 617d 84bd 46de 283d
00000150: aee8 0cbd dfa8 dc3d 2fb7 c9bc 4ac3 a5bc
00000160: 8b83 d83c 4707 63bd 32b3 8cbc dd2e e6bc
00000170: 8b35 803d 1a3d 46bd a526 b53c 7479 ec3b
00000180: f224 4e3d c7a1 003d 9bac 37bd 8bee 10bd
00000190: ce64 5d3d 4e33 a5bc b8dd 903d d2a1 f4bc
000001a0: 4087 ce3c 0c92 a33c 0435 9cbc 260a dd3c
000001b0: 798d 6abd 7dea d73b e22b a63c 918c 9abd
000001c0: 7f99 a53d 8a97 013e 5c72 20bd 5fe9 823d
000001d0: 4643 843c 8a67 db3c faff 043d 5ec6 513d
000001e0: ce1c 79bb 3f50 bd3d 82f5 4d3c f400 7f3d
000001f0: c35c f03c 7882 883d b133 f13c 328d c83c
00000200: b232 c6bc f440 923c 8478 daba 2530 46bd
00000210: 2daa 51bd 720e d03b bf9a e53b fad6 f5bc
00000220: 645c a5bb eab7 f8bd ce37 033d 5b45 ebbc
00000230: 8e09 4cbd 2a14 4ebd 3c04 8fba 78c4 8fbc
00000240: eb2e c3bb 3b3e 973d 8293 223d f85b 913d
00000250: f56c 2cbd 1549 b33c d64c e93d b5d3 993c
00000260: 68c3 20bc 99b0 a53b aaf3 5b3d 7cd9 8bbc
00000270: 6597 0ebd edac 1e3e ad4c 0d3b 6fb9 bbbd
00000280: 8e60 0abe 80b3 84be 576d febe 1cae 5abd
00000290: 44e9 923c b52e d43d ea97 21be 5f1e 0fbd
000002a0: cab8 80bd 4c22 54be 90b3 d93c 9c94 80bd
000002b0: 70a6 77bd 38bf ad3d 49a0 8b3d 5bb6 8bbd
000002c0: 4152 debd 34dc 373d c740 66bc 6b33 06bd
000002d0: d941 803d 3511 56bd 3dc1 adbd ee44 b63b
000002e0: f101 d53c c3bf 0a3e caa4 5abe 9f36 bebe
000002f0: 675e 083e f6dc 47bc d3ad b8be 0627 cfbd
00000300: a812 82bd 9402 963d e6b4 f33d 6df0 6bbd
00000310: daf6 77bd 546f 18bd 4911 7fbc d1c4 51bd
00000320: 883e ab3c b9a6 ce3d 61fd 9fbc d2e4 cfbd
00000330: 26a7 b1bd 4a35 0ebc d1ae a93d c1fb 31bd
00000340: 2e15 643d eb9d e43c b09b 853d 288b 03be
00000350: 9727 1e3c 9f75 b0bd 7fa9 c93d d569 b7bc
00000360: bc25 a9bd 8fe3 fabc 89d6 ccbc f7e5 f8bc
00000370: 191d eb3d 15f5 a5bd 3eac c1bd 8669 0dbc
00000380: 56df 51bd a6c5 be3e dd5f a33d 1634 88be
00000390: aba1 fe3d cee5 ab3d 5980 53be fb27 6abd
000003a0: 1efb d3bc d63f e53c 1c6d 0c3d b6f7 96bd
000003b0: 4615 9f3d bcfa 35bd 0995 533a 6be5 df3c
000003c0: bf41 8d3c 83aa 683a 2b77 a5bd 249b 803c
000003d0: aa96 823d b6df 873c e584 323c 73e4 a5bb
000003e0: fcb4 c73a 1f00 cd3d b6d6 143d b4b4 aa3d
000003f0: b2e2 98bc 6b9f e8bd 4ed4 e43c 91e8 b03d
0.040729422 -0.058820263 0.1061213 -0.026572593 -0.06720601 0.08916749 0.16773172 -0.044178117
-0.23425812 0.05138652 -0.012028575 0.055118226 -0.20639266 -0.10944968 0.12328158 -0.108239025
0.03857035 0.017372934 -0.0012714395 0.04826906 -0.15179677 -0.12848824 -0.05056447 0.030285412
0.009815756 0.114272445 -0.049346466 -0.016173478 0.032635797 -0.13377838 -0.16433293 0.09421531
-0.03943013 -0.035699476 -0.0054157367 -0.18777601 0.0012995403 -0.05247319 0.1337391 0.040780324
-0.010290695 -0.0105921645 0.008681881 0.064164735 0.05314698 0.0032919392 -0.01986516 -0.014321949
-0.025446102 0.06980804 -0.0635646 -0.031899627 0.009328883 0.17937258 -0.08548168 -0.083783306
0.037293542 0.03704417 -0.038310606 0.020582996 -0.07865264 -0.004542927 -0.00596372 -0.039446525
0.01756907 0.05800657 -0.082118295 -0.040212307 -0.0066850693 0.065483086 0.021899272 -0.03890646
0.0021855473 -0.027996538 -0.085443586 0.06985688 0.1244884 -0.02764772 0.011378653 -0.03500208
0.028806455 -0.054873917 -0.06469227 0.0412276 -0.03440159 0.10774397 -0.024623482 -0.020234723
0.026429912 -0.055426862 -0.01717529 -0.028098518 0.062602125 -0.048398115 0.022113154 0.007216627
0.050328203 0.031404283 -0.044842344 -0.035383742 0.054051213 -0.020166066 0.070735395 -0.029862318
0.025210977 0.019967102 -0.019068249 0.026982378 -0.057263825 0.0065892325 0.020284597 -0.07546342
0.08085918 0.12655464 -0.03917156 0.06392168 0.01614536 0.02678277 0.03247068 0.05121457
-0.0038011554 0.09243821 0.012570741 0.06225677 0.029341107 0.0666551 0.029443594 0.02448139
-0.024194095 0.017853238 -0.0016667997 -0.048385758 -0.051187683 0.0063493783 0.0070069726 -0.030009735
-0.005046414 -0.12144454 0.03203564 -0.028719595 -0.0498138 -0.0503122 -0.0010911296 -0.017549738
-0.005956521 0.073849164 0.039691456 0.0709762 -0.042096097 0.021885434 0.113916084 0.018777708
-0.0098122135 0.0050564525 0.053699173 -0.017071478 -0.03481235 0.15495653 0.0021560595 -0.09166228
-0.13513395 -0.25918198 -0.49692795 -0.0533887 0.017933495 0.10360471 -0.15780607 -0.034941074
-0.06285246 -0.20716208 0.02657488 -0.06278345 -0.06046146 0.08483738 0.06817681 -0.06821891
-0.108555324 0.044887736 -0.01405353 -0.03276388 0.062625594 -0.052262504 -0.08484123 0.0055624163
0.026001902 0.13549714 -0.21351925 -0.37151048 0.13317262 -0.012198677 -0.36070117 -0.10114865
-0.06351215 0.073247105 0.11899738 -0.057602335 -0.06053815 -0.037215546 -0.015568086 -0.05121309
0.02090384 0.100903936 -0.01953 -0.10151066 -0.08674459 -0.008679697 0.08285297 -0.04345298
0.05568426 0.027907332 0.06523836 -0.12846053 0.009652994 -0.086161844 0.09846782 -0.022389332
-0.082591504 -0.030626087 -0.025004642 -0.030383093 0.11480159 -0.08103386 -0.09456681 -0.008631116
-0.05123838 0.3726017 0.07977269 -0.26602238 0.124331795 0.08393441 -0.2065443 -0.057167035
-0.025876578 0.02798454 0.034283742 -0.07371466 0.077677295 -0.044428572 0.0008071219 0.027331075
0.017243264 0.0008875506 -0.0807937 0.015698977 0.06376393 0.016586166 0.010895942 -0.0050626337
0.0015236433 0.10009789 0.036337577 0.08335248 -0.018662784 -0.113585316 0.027933266 0.086381085

fc.0.bias f4 [64]
00000000: 895a 233c e067 0b3b 0d0d 4cbc e60b cebb
00000010: 7c6b 003d a1b4 82bb ea1f 3a3b a396 813a
00000020: c14e 563c bdd2 3d3c 4f56 60bc 883d 99bb
00000030: 594e f83a 190e e2ba aebd 1fbc 46f1 1abc
00000040: 840a 12bc 6a4f 5a3c 8c78 a4bc 3259 3ebb
00000050: c2aa 9bbb 8c52 913a 501f 90bc 876c 87ba
00000060: 089b a8bb ddcb 22ba fa49 bcba e474 d33b
00000070: 6a23 1ebc 4548 77bb 5a40 433c f6b1 9bbb
00000080: 5a40 203a 8d82 893b 170c f33a 474f 8e3a
00000090: 89bd 5e3c 2548 b9bb dbbf abbb 7fdb cb3a
000000a0: d2e3 90bb 317c e33b 136d 65bc c88e c0ba
000000b0: f937 d5bb faaf 463c 23f8 b63a 0b72 313b
000000c0: 67e2 a43b f230 073c 0bd3 1ebc 91fe 993b
000000d0: be61 64bb 1729 433c c30e 6bbc e346 11bb
000000e0: 46f2 7c3b 7a59 b0ba de3c 2d3c 9a45 653c
000000f0: 7dd5 32bc 33bf 9ebc 90b0 7f3c f7f4 f2bb
0.009970316 0.002127163 -0.012454283 -0.0062880395 0.031352505 -0.003988818 0.002840037 0.0009886812
0.0130803 0.011585888 -0.013692453 -0.0046765245 0.0018944248 -0.0017246633 -0.009749813 -0.009456938
-0.00891364 0.013324598 -0.020077012 -0.0029044864 -0.0047505805 0.0011087223 -0.017593056 -0.0010332026
-0.0051454343 -0.00062101876 -0.0014365308 0.0064531434 -0.009651998 -0.0037732285 0.011917198 -0.004751439
0.0006113105 0.004196471 0.0018543032 0.0010857367 0.013594993 -0.0056543523 -0.005241377 0.0015553086
-0.0044216895 0.006942295 -0.014003056 -0.001469099 -0.0065069166 0.012126917 0.0013959449 0.0027076032
0.005031872 0.008251416 -0.009693871 0.004699536 -0.0034848298 0.011911652 -0.014346781 -0.0022167496
0.0038596555 -0.00134544 0.010573594 0.013993645 -0.010915157 -0.01937828 0.015606061 -0.007414456

fc.1.weight f4 [64, 64]
00000000: ace9 aa3d 61bd 6b3d af18 013d 07a0 1a3e
00000010: d1e8 2ebd 62d4 9c3d 8fff c0bd 3998 423d
00000020: 42da b1bc a1f9 bf3b 1021 dbbc e819 353e
00000030: a809 bc3d 66c7 d33d 61ef 093d 48f0 3b3c
00000040: 4a5f 3dbd fe1d 14be c841 e3bd 3b64 ad3d
00000050: c53e 72bd 7581 63bd 2338 c8bd ca1e 5cbe
00000060: 02f7 b3bd 27af bfbd e4b5 043e 0a3f 283d
00000070: d0b6 a13d 6517 cfbc 33b6 c33d 8d9e 64bd
00000080: 1aed 083e 6090 3e3e 9dcb 9abd 1241 f1bc
00000090: 8763 05bc 5dd3 1f3e e46e e73d 980b bf3c
000000a0: 9661 78bd 1b25 5f3d e7ee 093d bc73 6ebd
000000b0: e38b 82bd 3262 03be a7b9 793d d7fb 8bbe
000000c0: 01f6 04bd 9532 5a3d cbf9 24be b2ec 423d
000000d0: be13 01be 6fc1 953e 1565 ce3c 1f99 ce3d
000000e0: b569 613d ee96 eb3c af94 93bc 710e 1bbb
000000f0: 6665 53bd 56ca b63d 8749 1dbc 30d7 02be
00000100: e61d bebd 34f9 123e 7ec0 01bc 2871 da3d
00000110: 1068 a7bd 1f93 6ebd 2e2b 2b3c ce22 36be
00000120: c64d af3d 4ca5 c43d 5225 da3d b1d8 c63d
00000130: fe68 e33c f93c 7a3d 3a9f 1bbd f435 b83c
00000140: b427 4d3d 5cdc de3b 3b33 59be 23f8 ea3d
00000150: 571d 33bc 9722 9ebd b212 063d a875 a13c
00000160: fa81 e23c a84d d5bc bc1a ce3d 4f85 b4ba
00000170: c7e5 e23c 1b26 be3d f85c 19bc 0781 40bc
00000180: 7a47 7ebb 4a9d 33bc 3111 1f3e 037c 98bd
00000190: 0e92 773d 6310 08be 5265 0bbd e517 2e3e
000001a0: fe3e 2cbd 9131 7a3d ea7c 013e 9250 8cbc
000001b0: f5ea 3bbe 4552 5a3e 96e4 edbd e653 63be
000001c0: 8aa0 4cbd 68c4 94bd 95cf 013e dc07 89bd
000001d0: f4b5 6dbe 793d b8bd 4b07 92bd 8679 bcbd
000001e0: a82f 5abd 4199 9e3d 482f 1a3d c079 76bd
000001f0: 80d9 333e 9161 ee3d c388 0ebe 4c7c 82bd
00000200: bd1c 0fbd e401 38be ab5e e1bd c4b2 603e
00000210: e935 653d 34c7 9d3d 7d05 053e e008 2dbd
00000220: ca28 88bc 95dd bf3d 2b0b e83d dd04 ebbd
00000230: 3a72 773c 4510 3ebd 63cc 2fbe ccba 9f3d
00000240: fb60 993d ad0c bb3d ee55 56bd 714a 863d
00000250: 9855 b13d 77b8 db3d 1dc7 67b9 9672 03bc
00000260: 26b8 3f3e 3203 1a3e cf2e b83c 28f7 d8bd
00000270: fe75 66bd 2efa fc3d 0f71 ecbd fea1 963d
00000280: de0e 363b 9887 0fbc 39cf 913d f89e 543d
00000290: 8304 e2bc 0d76 7c3c bcdd 483b 6835 8cbd
000002a0: 2b61 b3bd f262 95bd ea8b d2bd a910 7fbd
000002b0: 92ea 973d a6f3 13be 21b7 97bc 3398 2cbb
000002c0: c1d9 97bd fe0d 353d 55b0 14be e46f 54bd
000002d0: 5b8f 3a3d 6349 af3d d440 47bd b428 783d
000002e0: 719d 54bd 1ac5 2f3e 9adb 603c e451 30bc
000002f0: 5564 bfbc 3f0f 4b3e 09e6 0bbc 0e4b bd3c
00000300: c198 5c3c 8f24 b9bc 0399 18bd 211c 25be
00000310: 28b8 5bbd 0a37 82bd b203 1b3c 2496 303d
00000320: fbb7 fbbd 9114 c0bd d7e6 1b3e 614a 153c
00000330: 928b 40be 2c9b 3cbe 41ac 92bd e616 a7bd
00000340: a10b a43d 65ee 5f3e a289 2bbd d5c1 eb3c
00000350: 0cb3 963d 6212 8fbd 6d0d 103c 6dfc a8bd
00000360: 3c02 40bd 3103 a2bd 4214 0bbd de2b 2bbd
00000370: 3700 003c 2595 97bd 4c97 f43d 822a 52be
00000380: 7b5b 353e fa12 c93c 62d0 853e f03d e1bd
00000390: 7cda daba b121 323d 615f c8bd bb53 6d3d
000003a0: 761e 893c d1fa 2d3e 144b 78bd 11ed 803a
000003b0: d4b0 2c3c d1ed febd 7010 1c3e e4ae 16be
000003c0: 17fd 9ebd 6ae7 0d3e cbf0 243c 1f04 0bbd
000003d0: bdf8 093d 2c59 8bbd 12d4 b4bc 6d6c cfbd
000003e0: 4c20 a1bc a37d c6bd d70e 07bd 5337 f0bd
000003f0: d441 d8bc 01ac b33c 5d0f 093d 5681 d7bc
0.083453506 0.057553653 0.03151768 0.15100108 -0.0427025 0.07657696 -0.09423744 0.047508452
-0.021710519 0.0058586155 -0.026749164 0.17685664 0.09181529 0.103407666 0.033675555 0.011470862
-0.046233453 -0.14464566 -0.11096531 0.08466383 -0.059141893 -0.05554338 -0.09776332 -0.2149612
-0.087873474 -0.093595795 0.12960011 0.041075744 0.07896197 -0.02527971 0.09556236 -0.05581527
0.13371697 0.18609762 -0.075583674 -0.029449973 -0.008141405 0.15607972 0.113004476 0.023320958
-0.06063994 0.054478746 0.0336751 -0.05821584 -0.063743375 -0.12830427 0.060968067 -0.27340576
-0.03246117 0.053270895 -0.16110913 0.04758901 -0.12605187 0.2924914 0.025194684 0.10087799
0.05503245 0.028758492 -0.018015234 -0.002365973 -0.051610373 0.08925311 -0.00960005 -0.127774
-0.092830464 0.14352876 -0.007919429 0.10666114 -0.08174145 -0.058245774 0.010447307 -0.17786714
0.08559756 0.096018404 0.106516495 0.09709299 0.027760025 0.061093304 -0.037993647 0.022486664
0.050086692 0.006801171 -0.21210949 0.114731096 -0.010932288 -0.07721441 0.032732673 0.019709423
0.027649868 -0.026038006 0.10063693 -0.0013772639 0.027697457 0.09284612 -0.009360544 -0.0117495125
-0.0038799928 -0.010962794 0.15533902 -0.07445528 0.060442023 -0.13287501 -0.034032173 0.17001303
-0.04205226 0.061082426 0.12645307 -0.017128263 -0.18351348 0.21320446 -0.11615865 -0.22199973
-0.04995779 -0.07264024 0.12676843 -0.06690952 -0.23213941 -0.089961 -0.07130297 -0.09202866
-0.053268105 0.077440746 0.037642747 -0.060174704 0.17563438 0.11639703 -0.13919358 -0.06371364
-0.034939516 -0.17969471 -0.110043846 0.21943194 0.055959616 0.077040106 0.12990375 -0.042244792
-0.016621012 0.09368435 0.11330255 -0.11475537 0.015102917 -0.046402235 -0.17167811 0.077993006
0.07489201 0.09133277 -0.052328043 0.06557167 0.08658904 0.10728543 -0.00022104052 -0.008022925
0.18722591 0.15040281 0.022483258 -0.10594016 -0.05626487 0.123524055 -0.11545002 0.07355116
0.0027779858 -0.008760355 0.07119603 0.051909417 -0.027590042 0.015409005 0.0030649742 -0.06846124
-0.08758768 -0.07294263 -0.10280593 -0.062271748 0.074177876 -0.14448413 -0.01851994 -0.0026335835
-0.0741458 0.044202797 -0.1452039 -0.05186452 0.04554687 0.08558919 -0.04864581 0.060585693
-0.05190796 0.17165032 0.013724232 -0.010761712 -0.023363272 0.19830035 -0.008538731 0.023107078
0.013464154 -0.02260044 -0.0372553 -0.16124012 -0.053642422 -0.06358154 0.00946133 0.043111935
-0.12290951 -0.09378923 0.15224777 0.009111972 -0.18803242 -0.18418568 -0.07161761 -0.081586644
0.080100305 0.21868284 -0.041879304 0.02877895 0.07358369 -0.06985928 0.008792263 -0.082512714
-0.04687713 -0.07910765 -0.033954866 -0.041789882 0.007812551 -0.07401494 0.1194292 -0.20524028
0.17710678 0.024545182 0.26135546 -0.10998142 -0.0016697193 0.043489162 -0.09783817 0.05794118
0.016738158 0.1699021 -0.060618475 0.0009836276 0.010540206 -0.12447704 0.15240645 -0.14715153
-0.07763117 0.13857809 0.010067175 -0.033939477 0.03368448 -0.068041176 -0.02207378 -0.101281025
-0.01966872 -0.09691932 -0.032973137 -0.11729302 -0.026398577 0.021932604 0.033461917 -0.02630679

fc.1.bias f4 [64]
00000000: e50d 1d3d 4808 683a 8b67 42bc 19fa b03b
00000010: ba1d fcba 3cba 333c 5e02 22bc 1149 953c
00000020: 0a2e 46bd eef9 8b3c de17 513c 3049 99bb
00000030: 5e85 debb f956 09bc 2b74 2c3c 61a4 f8bb
00000040: d324 c0bb 4d64 7a3d 1b0f 1b3a 8bc9 65bc
00000050: d717 d43b 6eba c4bb 2e87 03bd 0b15 c83a
00000060: 9e2a e5bc 7739 ae3a 2583 7d3c 3a5e 54bc
00000070: 6af7 78bc 6556 97bc 2e37 e73c da32 16bb
00000080: 3c6f 053d 4a4c 47bc 50b2 46b9 a3c9 d33c
00000090: cea0 ce3b 7fd6 f3bc e03c 3f3b f136 243c
000000a0: 8aa5 c3bc 8ff9 98bc 6293 d4bc 9bff 653b
000000b0: 827b 0d3d c089 8c3c 8217 dbba 5cfc 2b3b
000000c0: 7450 8ebc 7643 663d b1d5 a13c 872c 973c
000000d0: a65c 8d3c 150b 05bd 54ef 5fbb 3ba0 ee3a
000000e0: 9ec8 1bbc 1585 073b e6fa 1e3b 5ebe 50bc
000000f0: 9b22 d7bb bca4 093d f6b9 b43c 8ee8 3abc
0.03834333 0.00088513317 -0.011865507 0.0054009077 -0.0019234933 0.010969695 -0.00988826 0.018223317
-0.04838375 0.01708695 0.012762038 -0.004677914 -0.006790801 -0.008382552 0.0105257435 -0.007587955
-0.005863765 0.06113081 0.00059150317 -0.014025102 0.0064725685 -0.0060036695 -0.03211134 0.001526506
-0.027974423 0.0013292272 0.015473162 -0.0129619185 -0.015195707 -0.018473813 0.028224554 -0.0022918493
0.032576784 -0.012164185 -0.00018949178 0.025852984 0.0063057905 -0.029765366 0.0029180571 0.010022865
-0.023882646 -0.018673686 -0.025949184 0.003509498 0.034541614 0.017155528 -0.001671538 0.0026242947
-0.017372347 0.05621668 0.019755216 0.01845385 0.017256092 -0.03248127 -0.003416975 0.0018205711
-0.00950828 0.0020678688 0.0024258434 -0.0127407 -0.0065654046 0.03360437 0.02206133 -0.011407984

fca.weight f4 [36, 64]
00000000: 2cc7 9039 2b9d b4b9 0bd6 3ebb f8c0 1fbb
00000010: fa1e aeba 595e 63b9 3a3a 20bb 9571 8d3b
00000020: 3b89 87b8 a787 08bb 342d 523b 053a 82bb
00000030: 1468 e53a cc06 ad3b c03a f3ba 098d 403b
00000040: 2ee9 a83a 636c 05bb b6bb ca3b cfdb 43ba
00000050: b31f 2bb9 a47e ff39 ada9 8dbb ebce 863a
00000060: 24ed cbba 6d5f 89bb 80ed 0abb bbd6 7cba
00000070: 4628 a6bb 0c96 ff3b 79b5 daba 5150 963a
00000080: 221b 263b da8d 2ebb 1393 41bb 2127 a13b
00000090: 1fa0 17bb dedf eb3a bd93 9fba 19d5 053b
000000a0: c6cc 69bb 92d1 6dbb b42c 7a3b bed5 263b
000000b0: 19f4 55ba ce12 0c3a 399a e838 e5de 053b
000000c0: 7d8d 1bbb 7093 aeb7 02f9 99bb 778e aeb9
000000d0: 2daa ce3a b8bb 883b 7712 3a3b 1772 893b
000000e0: 5c05 f9b9 c2fc 13bb e44a dabb 3dc8 df3a
000000f0: 0ad7 2aba 5c12 413b 86c0 d93a 07b3 973b
00000100: 2a04 8139 e576 903b 5fef 9c3b 24da bbbb
00000110: d75e 1539 df26 2d3b ebcd f13a b6b9 21bb
00000120: de5d 823b 4119 e53a 32bb 92bb 4b82 3ebb
00000130: 6b17 4aba f558 ba3b 78f6 313b 6fe8 973a
00000140: 151a 90bb 78e8 b1b7 6262 25bb 9e6c ea3b
00000150: 434d 89bb 5610 51bb 8b48 813a ac7b 9f3b
00000160: c8af 3a39 f118 e03b 0217 e53b 493d 9f39
00000170: 29e8 f23b 6523 a03a 19f6 aabb fe29 7dbb
00000180: 554e 013c 2344 72bb c503 02bc 832a f43b
00000190: 91c1 73ba aa6f 63bb 4300 d33b f6e8 a23b
000001a0: 6680 f739 ab46 71bb 91e8 1abb eec5 a1bb
000001b0: 96c2 a6bb cbb5 943b a991 b63b 6c04 04bc
000001c0: e185 20bc a98d 8b3b 7e7f b639 b99c db3a
000001d0: 4ff0 863b 7df4 ee3b ad9b 8eba 9c1d 72bb
000001e0: d000 08bb 7a97 b3bb 5fa1 a1bb b0f4 babb
000001f0: 6785 d2bb 72cc 133c 0ecd 5f3b 041a 1bbc
00000200: 54ac 81bb 3d5b 533a de63 a53a a786 33ba
00000210: 20c2 613b 0ddb 903a c469 7e38 80c6 feb9
00000220: 2bb0 043a 924f ab3a 29bd 0f3b 4a42 e7b9
00000230: 98b9 12bb b18d c63a 64f8 c6bb 9b5e 99ba
00000240: d741 f5ba f370 0aba c8ec 073b 3166 0ebb
00000250: f34d f33b 3b4b a1bb 4262 133b d402 3138
00000260: 7e11 403a e67f 63bb 9eaf e83a cc37 99bb
00000270: 3337 033a 5754 98bb 751b 7cb9 c95d 15bb
00000280: a16a 8abb 1779 30bb 8a4f 4fbb 156d 153b
00000290: e4ee 193a f56f deb9 c007 2bbb f5a5 343b
000002a0: a288 3d3b a6d2 1dbb c1df f9b9 17bc 18bc
000002b0: 06e3 fc3a e6da c1bb ed4c a83b cc09 d03a
000002c0: dee5 0f3c 5f83 a83a 435c 023b 27be c03a
000002d0: 0c3a 2cb9 373d 5bba b896 803b 1c4c 46bb
000002e0: 95b8 0a3b 8ac6 c23a c364 c8ba c8c4 c8bb
000002f0: 772b 153a ed1c 9cbb f722 efb9 cc6c 3cbb
00000300: 9bb0 d3bb 28bf 713b 5ec9 b2ba 45d5 13bb
00000310: cb79 9ab8 4101 54bb 8936 01bb ed56 8bbb
00000320: dc51 acb9 8776 1abb 78d0 bfb9 9966 e33b
00000330: 7fc5 e2ba 1bec ba3a 8243 82ba 805f e33a
00000340: b32e 773b ccaa 2bbb 44b6 50bb 68e7 c63a
00000350: 5e4a b538 6e4e eb3a 8e1f 31bb f69e b1bb
00000360: 0088 8fbb 0150 153c 2884 ccba 8d80 8e38
00000370: c400 f5b9 6e33 063c 6cce 98bb 5896 c4bb
00000380: 2a17 95ba 210f 23bb 3f68 afbb 9ef8 84bb
00000390: d40e 81b8 1ff1 3e3b 2890 afb8 819a 383b
000003a0: da0e 203b a9d9 983b 5c2a 61ba df06 7bbb
000003b0: a75f 20bb 2d0d 1f3b a42a 16bb dafb 263c
000003c0: 6cb2 9d3a 4f24 4a3b 95d9 19bc c797 bc3a
000003d0: 6755 d4b9 4a5b 8c39 a5ff 43bb 6ebf 263b
000003e0: fd7a af3a 331e 143c 13ce c5ba f84a 953a
000003f0: ca63 053b 04b0 403b a846 c6bb 14c9 ea3a
0.00027614215 -0.00034449375 -0.0029119279 -0.0024376493 -0.0013284378 -0.00021683554 -0.0024448768 0.0043165185
-6.462863e-05 -0.0020832808 0.00320704 -0.0039742016 0.0017502331 0.0052803513 -0.0018556938 0.0029380939
0.0012886876 -0.0020358793 0.0061869277 -0.00074714137 -0.0001631964 0.00048731745 -0.0043232054 0.0010285055
-0.0015558344 -0.004192284 -0.002119869 -0.00096450344 -0.005070719 0.0077998694 -0.0016686163 0.0011468028
0.0025345762 -0.0026634843 -0.0029537126 0.0049179946 -0.002313621 0.0017995795 -0.0012174767 0.0020421206
-0.0035675033 -0.0036288244 0.0038173618 0.002545699 -0.00081616786 0.0005343378 0.00011091348 0.0020427045
-0.0023735457 -2.0811072e-05 -0.0046988735 -0.0003329401 0.0015767269 0.0041727684 0.0028392354 0.004194509
-0.00047496974 -0.0022581075 -0.0066617597 0.0017073225 -0.00065170287 0.0029460406 0.0016613163 0.004629496
0.000246079 0.0044087046 0.0047892774 -0.0057327915 0.00014245078 0.0026420874 0.0018448209 -0.0024677343
0.003978475 0.001747884 -0.004477882 -0.002906936 -0.0007709178 0.005686874 0.0027154963 0.0011589656
-0.0043976405 -2.1208296e-05 -0.0025235643 0.0071540615 -0.0041901185 -0.0031900606 0.0009863538 0.0048670378
0.00017803826 0.0068389107 0.006991268 0.00030372504 0.0074129296 0.001221758 -0.0052173254 -0.0038629766
0.007892211 -0.0036966882 -0.007935469 0.007451357 -0.0009298558 -0.0034704008 0.00643924 0.0049716188
0.00047207176 -0.0036815803 -0.0023637156 -0.004936925 -0.0050891144 0.004538273 0.0055715633 -0.008057695
-0.009797544 0.0042588306 0.00034808734 0.0016755081 0.0041180025 0.007292329 -0.0010880135 -0.0036943918
-0.0020752437 -0.005480704 -0.004932567 -0.0057054386 -0.006424594 0.0090209115 0.0034149322 -0.009466652
-0.0039573107 0.0008062607 0.0012618264 -0.0006848373 0.0034447983 0.001105161 6.065682e-05 -0.0004859455
0.00050616515 0.0013069978 0.0021932817 -0.00044109143 -0.0022388455 0.0015148429 -0.006072091 -0.0011701168
-0.0018711638 -0.0005281113 0.0020740498 -0.0021728391 0.0074250638 -0.0049222982 0.0022488986 4.2202722e-05
0.0007326825 -0.0034713685 0.0017752533 -0.004675841 0.0005005479 -0.004648726 -0.00024042821 -0.0022791496
-0.004224137 -0.0026927644 -0.0031633102 0.0022800614 0.00058720843 -0.00042426554 -0.0026097149 0.0027564738
0.002892055 -0.0024081855 -0.0004765969 -0.009322188 0.0019293732 -0.0059159873 0.0051361234 0.001587206
0.008782832 0.0012856534 0.0019891418 0.0014705107 -0.00016424822 -0.0008363309 0.003924217 -0.0030257767
0.0021167148 0.0014860195 -0.0015288818 -0.006126974 0.00056903757 -0.0047641904 -0.00045611683 -0.0028751371
-0.006460262 0.003688762 -0.0013640334 -0.0022557538 -7.365978e-05 -0.003234938 -0.0019716343 -0.0042523057
-0.00032867386 -0.0023569183 -0.0003658568 0.006939721 -0.001730129 0.0014261039 -0.0009938332 0.0017347187
0.0037717044 -0.0026194332 -0.003184692 0.0015175166 8.6446045e-05 0.0017952451 -0.0027026865 -0.005420561
-0.004380226 0.009113313 -0.001560335 6.795032e-05 -0.00046730612 0.008190973 -0.0046632793 -0.0059993677
-0.0011374701 -0.0024880844 -0.0053530033 -0.004057958 -6.153961e-05 0.0029135419 -8.3715015e-05 0.0028168263
0.0024422915 0.004664619 -0.0008589381 -0.0038303656 -0.0024471076 0.0024269328 -0.00229136 0.010191882
0.0012031323 0.0030844396 -0.0093902545 0.0014388495 -0.0004049942 0.00026770897 -0.0029907015 0.002544369
0.0013388094 0.009040403 -0.0015091322 0.001139014 0.0020353668 0.0029401788 -0.0060509034 0.0017912709

fca.bias f4 [36]
00000000: e8be 203b ddc0 2ebb 500b a83a 475d 0b3b
00000010: 326a f63a 7867 213b e643 a3ba bb53 173f
00000020: 80c7 5e3e 37a8 9e3e e47f 063c 157a b73c
00000030: 40e5 943d 8478 db3f 125d a63e 6a87 af3c
00000040: 5dbe 8c3d 31ba 1f3d 240f ca3d c1ca 36be
00000050: 041c e23d 67f4 b43d db9b dfbc 2e24 2e3d
00000060: 626b 77bc 897f 88bc 4e90 dfbd 9e2d a6be
00000070: d9b5 e1bd 2aaa 81ba d7e4 373e 5d2a 2cbe
00000080: 6756 7b3d 3eac 083d b3cd 1c3d 45fa 6a3d
0.0024527851 -0.0026665248 0.0012820754 0.0021265314 0.0018799959 0.0024628323 -0.0012456148 0.5911214
0.2175579 0.30987713 0.008209202 0.02239708 0.072702885 1.7146153 0.32492882 0.021426875
0.068722464 0.038995925 0.09866169 -0.17850782 0.110405 0.088356785 -0.027295997 0.042514972
-0.015101286 -0.016662376 -0.10916196 -0.32456678 -0.11021013 -0.0009892632 0.17958389 -0.16813035
0.061361697 0.033367388 0.038282108 0.057367582
