data/reach/reach_net.pth (torch, 5335 bytes, 5 tensors)

fc.0.weight f4 [32, 9]
0	0x3d1a9d25	0.03774752
1	0xbe2e28dd	-0.17007776
2	0xbeb14644	-0.3462392
3	0xbefad10f	-0.48987624
4	0xbe37b0fa	-0.17938605
5	0xbedab748	-0.42717957
6	0xbf38bed9	-0.7216621
7	0x3eb0e046	0.34546107
8	0xbdca4f9c	-0.098784655
9	0xc03f3d57	-2.988119
10	0x3daef423	0.08542659
11	0xbe9a8b19	-0.30184248
12	0xbb555fc9	-0.0032558313
13	0xbdb5e373	-0.08881273
14	0xbd562759	-0.05228362
15	0xbd123c72	-0.035702176
16	0x3ddf601e	0.10907005
17	0x3bc74a70	0.0060818717
18	0x3e5e454b	0.2170612
19	0x3f4462c3	0.767132
20	0xc04d5916	-3.2085624
21	0xbebfb0fb	-0.37439713
22	0xbdd318c8	-0.10307461
23	0x3b3787d2	0.002800454
24	0xbe3be339	-0.18348397
25	0x3e17cab8	0.14823425
26	0x3c046954	0.008081753
27	0xbe4668b3	-0.19375877
28	0xbea28fd3	-0.31750354
29	0x3e46ec46	0.19426069
30	0x3e3c98cd	0.18417664
31	0x3e4df748	0.20113862
32	0x3d0e638f	0.034762915
33	0x3d4583cc	0.048221394
34	0xbe21f6fd	-0.15816875
35	0x3ddc0727	0.10743552
36	0xbd9d5984	-0.076830894
37	0x3ea2b511	0.31778768
38	0xbe9ecca6	-0.3101551
39	0x3e356b6e	0.17716762
40	0xbcf188c0	-0.029484153
41	0x3d8921dc	0.06695911
42	0x3e72b956	0.23703513
43	0xbd8f21a4	-0.06988838
44	0x3c9892c0	0.018624663
45	0x3ee7bd8c	0.452618
46	0xbeb96481	-0.3620949
47	0xbe041a72	-0.12900713
48	0xbee9ca83	-0.45662317
49	0xbedcbb54	-0.4311167
50	0xbdea4a49	-0.1143995
51	0xbe08ae45	-0.13347729
52	0x3ea7e523	0.32792005
53	0x3ee37632	0.44426113
54	0xbef9553e	-0.48697847
55	0xbded83ee	-0.11597429
56	0xbf125c6d	-0.5717228
57	0x3f5f5d3a	0.8725163
58	0x3e1ae345	0.15125759
59	0x3c0ceef2	0.008601891
60	0xbe79144c	-0.24324149
61	0xbdf318a8	-0.11869937
62	0xbe8245cc	-0.25443876
63	0x3d39f45c	0.045399055
64	0xbe41d04c	-0.18927115
65	0xbe9655a8	-0.29362226
66	0x3dd9db78	0.106375635
67	0x3e923060	0.28552532
68	0xbe376c75	-0.17912467
69	0xbe737394	-0.23774558
70	0xbe8604b1	-0.26175454
71	0xbe022b58	-0.12711847
72	0xbe26d432	-0.16291884
73	0x3e80cf0e	0.2515797
74	0x3dab5b46	0.083670184
75	0xbe2b61cb	-0.16736524
76	0x3b805961	0.003916905
77	0x3e0deae1	0.1385913
78	0x3d69d6dd	0.057089675
79	0xbf0b6ec8	-0.54465914
80	0xbebb027b	-0.3652533
81	0x3ecce555	0.40018716
82	0x3e5cfb72	0.21580294
83	0x3eeb2f5f	0.4593458
84	0x3ea128d6	0.31476468
85	0x3e96d68e	0.29460567
86	0xbe57a414	-0.21058685
87	0xbe1ca693	-0.15297918
88	0x3e938fb1	0.28820565
89	0x3e9b5600	0.3033905
90	0x3e59ae71	0.2125795
91	0xbd0b5267	-0.034014132
92	0x4090cc77	4.524959
93	0xbbba798e	-0.00569076
94	0xbb94cd4d	-0.0045410753
95	0x3d758a25	0.059946198
96	0xbcd69002	-0.026191715
97	0xbce21a17	-0.027600331
98	0x3c413d21	0.011794359
99	0xbed2a08c	-0.41138113
100	0xc00fc214	-2.2462206
101	0x3feab02b	1.8335012
102	0xbe5308ed	-0.20608874
103	0xbc56107f	-0.013065456
104	0xbc1ad00d	-0.009449017
105	0xbc943109	-0.018089788
106	0x3d6d8cc4	0.057995573
107	0x3d8bc85a	0.068253234
108	0xbf152198	-0.58254385
109	0x3e93bd65	0.28855434
110	0xbec2547c	-0.3795508
111	0xbec22a32	-0.37922817
112	0x3d33bb05	0.043879528
113	0xbe1a1bb9	-0.15049638
114	0xbf3530be	-0.707775
115	0x3e4e0d9b	0.20122378
116	0xbe3a33a4	-0.18183762
117	0x3f14d0b6	0.5813097
118	0x3e29d115	0.16583665
119	0x3fc381b4	1.5273957
120	0xbdf9c3a2	-0.12195517
121	0x3b9c9169	0.0047780764
122	0xbecfc600	-0.4058075
123	0xbccc336a	-0.02492686
124	0x3e8df11f	0.27723023
125	0x3d058900	0.032601357
126	0x3e061e72	0.13097551
127	0xbe2ce86f	-0.16885541
128	0x3f43c067	0.7646546
129	0xbd96fcee	-0.07372461
130	0xbe9ad04e	-0.3023705
131	0xbf18942b	-0.59601086
132	0xbe9f0c51	-0.31064084
133	0x3cb9b23b	0.022667995
134	0x3e1319f6	0.14365372
135	0x3dbea098	0.093079746
136	0xbda92fb3	-0.08261051
137	0xbeb77b64	-0.35836327
138	0x3e945701	0.2897263
139	0x3e62e1f8	0.22156513
140	0x3de8bbd7	0.113639526
141	0x3e506b6f	0.20353483
142	0x3e74bbc3	0.2389975
143	0x3e68526b	0.2268769
144	0x3f547de2	0.8300458
145	0xbe62963e	-0.22127625
146	0x3de2202e	0.11041294
147	0x3e87c23e	0.26515383
148	0x3ef45bf3	0.47726402
149	0xbe811fbc	-0.25219524
150	0xbe6d4164	-0.23169476
151	0x3f130666	0.5743164
152	0xbf08e42f	-0.5347318
153	0xbf255a1a	-0.6459061
154	0xbcf7840c	-0.030214332
155	0xbf0e7771	-0.55651003
156	0x3e9fc813	0.31207332
157	0xbeb895ae	-0.36051697
158	0x3e17e2cc	0.1483261
159	0xbee2becb	-0.44286188
160	0x3f15ceca	0.5851866
161	0x3eb0b62c	0.34513986
162	0x3eeb0cc9	0.45908192
163	0xbf653de6	-0.89547575
164	0xc03021d6	-2.7520652
165	0x3e1a8600	0.1509018
166	0xbda410a9	-0.0801099
167	0xbda24bb6	-0.07924597
168	0x3be4a5b9	0.0069777635
169	0xb924ea85	-0.00015727624
170	0xbd6cfb89	-0.05785707
171	0xbf01e8e6	-0.50746
172	0x3df5917f	0.11990642
173	0xbc46bed9	-0.012130463
174	0xbe769671	-0.24080826
175	0x3e2c95e6	0.16854057
176	0xbea1d229	-0.31605652
177	0x3e29c904	0.16580588
178	0xbe603671	-0.21895768
179	0x3e844993	0.25837383
180	0xbf6d9e43	-0.92819613
181	0x3e81b77e	0.25335306
182	0xbe0964b2	-0.13417318
183	0xbd5c56a9	-0.053793583
184	0xbe05d4d1	-0.13069464
185	0xbea7cd12	-0.32773644
186	0x3d195af8	0.03744027
187	0xbe795f61	-0.2435279
188	0xbdf1900d	-0.11795054
189	0x3e41269c	0.18862385
190	0x3dd38ac8	0.10329205
191	0xbe4ecd32	-0.20195463
192	0xbd5f684c	-0.054542825
193	0xbdb61444	-0.08890584
194	0xbde39116	-0.11111657
195	0xbe26bd01	-0.16283037
196	0xbea4e134	-0.32203066
197	0x3e19b962	0.15012124
198	0xbf78add1	-0.9714022
199	0xbe9ba11a	-0.30396348
200	0xbf0c934a	-0.54912245
201	0x3dec746d	0.11545644
202	0xbcc786aa	-0.024356205
203	0xbee7f474	-0.4530369
204	0xbecbd9c8	-0.3981459
205	0x3f394183	0.7236559
206	0xbe1b9dd0	-0.1519692
207	0xbd895319	-0.06705303
208	0xbdac9e6e	-0.084286556
209	0xbe6f1574	-0.23348027
210	0x3effed01	0.49985507
211	0x3da45130	0.08023298
212	0x3e185a8b	0.1487829
213	0x3ea96b8a	0.33089858
214	0x3eb2805f	0.34863564
215	0xbdb8c03b	-0.0902104
216	0xbf0431e4	-0.5163863
217	0x3cdd8ade	0.027043756
218	0x3e6e8c16	0.23295626
219	0xbf35903b	-0.70923203
220	0x3de17179	0.11007971
221	0x3ead3a34	0.33833468
222	0x3d5a719f	0.053331014
223	0xbe630439	-0.2216958
224	0x3e8200ca	0.25391227
225	0xbf89b3de	-1.0758016
226	0xbd2f21be	-0.04275679
227	0xbea5a0b1	-0.3234916
228	0xbf0a503c	-0.5402868
229	0x3edff9fe	0.43745416
230	0x3eb61cfe	0.35568994
231	0xbde2a0f7	-0.11065858
232	0x3e117644	0.14205271
233	0xbdc3cd15	-0.09560601
234	0x3e741762	0.23837045
235	0x3cb2a28d	0.021806026
236	0x3d337ad6	0.043818317
237	0xbc8d45c7	-0.017245186
238	0xbdf013ba	-0.117225125
239	0xbd5c04f3	-0.053715657
240	0x3f433f72	0.76268685
241	0xbd8f5847	-0.069992594
242	0xbe695011	-0.22784449
243	0xbeb5da67	-0.3551819
244	0x3dccdeb7	0.10003417
245	0xbece72f7	-0.40322086
246	0x3de84f9d	0.1134331
247	0xbd422587	-0.04739907
248	0xbea838cf	-0.32855842
249	0x3dab96ef	0.08378398
250	0x3eb6e095	0.35718217
251	0x3da15390	0.078772664
252	0xbecbbb03	-0.39791116
253	0xbe998624	-0.29985154
254	0xbefa044a	-0.48831397
255	0x3c18e909	0.009332904

fc.0.bias f4 [32]
0	0xbe9bc592	-0.30424172
1	0x3ee1ee22	0.44126993
2	0x3f04f521	0.5193654
3	0xbea637f5	-0.32464567
4	0xbe94f543	-0.2909337
5	0x3db8f23f	0.0903058
6	0xbe93fc23	-0.28903303
7	0xbe945c23	-0.28976545
8	0x3d1bae17	0.038007822
9	0x3df07e4c	0.11742839
10	0xbf1b2b9c	-0.6061342
11	0xbf006997	-0.5016112
12	0x3eac31c1	0.3363171
13	0xbe5f0fc0	-0.21783352
14	0xbd5f8f64	-0.054580107
15	0x3e7a836a	0.24464193
16	0x3e3ef82d	0.18649359
17	0x3ed2c495	0.41165605
18	0x3ee5ff05	0.44921127
19	0x3f3c76cf	0.7361879
20	0x3f77f0f4	0.9685204
21	0xbe30067c	-0.17189974
22	0xbd5823d4	-0.052768543
23	0xbee7c715	-0.45269075
24	0x3f0c80bf	0.5488395
25	0xbcd445e8	-0.02591224
26	0x3e4acebf	0.1980543
27	0x3ee3e556	0.44510907
28	0x3dcfddd7	0.101497345
29	0x3e84bd22	0.25925547
30	0xbe38f32b	-0.18061511
31	0xbe69b86e	-0.2282426

fc.1.weight f4 [16, 32]
0	0x3e86438f	0.26223418
1	0xbf7a89b3	-0.9786636
2	0xbf8fad9e	-1.1224859
3	0x3d97a63b	0.07404753
4	0xbd33e1d8	-0.043916553
5	0xbe749247	-0.23883925
6	0x3e856200	0.2605133
7	0xbd1f28a8	-0.038857132
8	0x3e859aae	0.26094574
9	0xbe0be11a	-0.13660088
10	0xbfc0395e	-1.5017507
11	0xbf7798f9	-0.9671779
12	0x3e886d5f	0.26645944
13	0xbf157a82	-0.5839006
14	0xbe886a41	-0.26643565
15	0x3d4304f8	0.04761216
16	0xbde57893	-0.11204638
17	0x3f04ec0f	0.51922697
18	0xbf6ef9aa	-0.9334971
19	0x3e877d9a	0.26463014
20	0x3f1e83e4	0.6192
21	0xbdfa3fd0	-0.122192025
22	0x3f18a068	0.5961976
23	0x3ebb627d	0.36598578
24	0x3ec01f2a	0.37523776
25	0x3ed66ce6	0.41879958
26	0x3ed59534	0.41715395
27	0x3eace0aa	0.33765155
28	0xbe259400	-0.16169739
29	0x3b6cf5a3	0.0036157153
30	0x3dcc734d	0.099829294
31	0xbe02ca02	-0.12772372
32	0xbe5ec2c3	-0.21753983
33	0x3ed0613e	0.4069919
34	0x3eef6e9b	0.46764073
35	0x3d8ac69f	0.06776165
36	0x3d60e1b0	0.054902732
37	0x3d4f6780	0.050635815
38	0xbe70d16b	-0.23517387
39	0x3e0c8af8	0.13724887
40	0x3db7e17d	0.08978555
41	0x3e0b6e21	0.1361623
42	0x3f47c48d	0.7803429
43	0x3ef4dfc2	0.47826964
44	0xbe67b33c	-0.22626966
45	0x3e13958a	0.14412513
46	0xbd713259	-0.058885906
47	0x3e68d331	0.22736813
48	0x3d880d49	0.06643159
49	0x3d835968	0.06413537
50	0x3eef5383	0.46743402
51	0xbd87ba1c	-0.066272944
52	0xbe4cfa3f	-0.20017336
53	0xbd1ca829	-0.038246308
54	0x3d14e136	0.03634759
55	0x3d22c5bc	0.039739355
56	0xbc97f1a6	-0.018547844
57	0xbe077ce0	-0.1323123
58	0xbe0ce782	-0.13760188
59	0x3c2444ea	0.010026196
60	0x3e37bf2a	0.17944017
61	0x3dbbaf28	0.09164268
62	0xbd3470f0	-0.044053018
63	0x3e690dad	0.22759123
64	0xbe6a094e	-0.22855112
65	0x3ea59169	0.32337502
66	0x3ed266a8	0.41093946
67	0xbe1e2364	-0.15443188
68	0xbe0c7b5e	-0.13718936
69	0x3c9bc968	0.019016936
70	0xbe26881d	-0.1626286
71	0x3c85c55e	0.016329464
72	0xbdcbaddd	-0.09945271
73	0x3e24c59e	0.1609101
74	0x3f4f5806	0.8099369
75	0x3ef5f4ac	0.48038232
76	0xbe87922a	-0.26478702
77	0x3e40ae0a	0.1881639
78	0xbc92fc36	-0.01794253
79	0x3dbb3019	0.09140033
80	0x3e6091a3	0.21930556
81	0xbd283e8b	-0.04107527
82	0x3f11bfc0	0.5693321
83	0xbd2306de	-0.03980147
84	0xbd6b7063	-0.057480227
85	0x3e2b8d3d	0.16753097
86	0xbe89565d	-0.26823702
87	0x3d6faf0b	0.058516543
88	0xbc288656	-0.010285934
89	0xbe6098a3	-0.21933226
90	0xbdcfadaa	-0.10140546
91	0x3c880e1d	0.016608292
92	0x3e832ee1	0.25621703
93	0x3b804db9	0.0039155153
94	0x3d84f511	0.06492055
95	0x3daf6b31	0.08565367
96	0xbf25b7aa	-0.64733374
97	0x3fede596	1.8585689
98	0x3ffe390e	1.9861162
99	0x3bdff490	0.006834574
100	0xbdde9d83	-0.10869887
101	0x3ee84f2a	0.45372897
102	0xbf1864f9	-0.5952907
103	0xbdce75a0	-0.10081029
104	0xbcac493b	-0.021031013
105	0x3f01966e	0.5062016
106	0x403b71e8	2.9288273
107	0x3fed4ec6	1.8539665
108	0xbf0bc67f	-0.54599756
109	0x3f835ded	1.0263039
110	0x3f08517b	0.5324933
111	0x3e4ade70	0.19811416
112	0x3f5e8a35	0.8692964
113	0xbf211f3f	-0.629383
114	0x3fe76b9f	1.8079718
115	0xbeb94588	-0.3618586
116	0xbf034f24	-0.51292634
117	0x3df29ebe	0.11846684
118	0xbf5809e0	-0.8439007
119	0xbea2cacb	-0.31795344
120	0xbf2f72df	-0.68534654
121	0xbf3ea54d	-0.7447098
122	0xbf00d318	-0.50322104
123	0xbe7a6099	-0.24450912
124	0x3f0308b1	0.5118514
125	0x3df41d77	0.119196825
126	0x3d2b6d19	0.04185209
127	0x3f0b709f	0.5446872
128	0xbea51eef	-0.32250163
129	0x3f4ee216	0.8081373
130	0x3f843b20	1.0330544
131	0x3dd53525	0.10410527
132	0x3e1821fb	0.14856713
133	0x3e1d8e30	0.15386271
134	0xbea991b3	-0.33118972
135	0xbd0a4b2a	-0.03376309
136	0x3db82cb8	0.089929044
137	0x3e5cac86	0.21550187
138	0x3f99114d	1.1958405
139	0x3f781b5f	0.96916765
140	0xbe28cb9c	-0.16483921
141	0x3f0f05a2	0.5586797
142	0x3e036fde	0.12835643
143	0x3e8c1d36	0.27366036
144	0x3eb7efaa	0.35925037
145	0xbeadb694	-0.3392836
146	0x3f66c4af	0.90143865
147	0xbe9d900d	-0.30773965
148	0xbebc01fd	-0.36720267
149	0xbe2e58f9	-0.17026128
150	0xbea8e2fe	-0.3298568
151	0xbe8cb650	-0.27482843
152	0xbe9988a1	-0.29987052
153	0xbece1af5	-0.40254942
154	0xbccf8608	-0.025332466
155	0xbe4a88da	-0.19778767
156	0x3e53cf9b	0.20684664
157	0xbb27b197	-0.002558803
158	0x3e0c1bcf	0.13682483
159	0x3e5347a5	0.20632799
160	0x3e96d685	0.2946054
161	0xbf636d0e	-0.8883828
162	0xbf833f71	-1.0253736
163	0x3dc6b2d0	0.097020745
164	0xbe04aa00	-0.12955475
165	0xbeaa6c09	-0.3328555
166	0x3f0a57c0	0.54040146
167	0x3dbf5e8f	0.093442075
168	0x3e840d30	0.2579131
169	0xbe80ceda	-0.25157815
170	0xbfa72702	-1.3058779
171	0xbf64b964	-0.89345384
172	0x3eaa6578	0.3328054
173	0xbec32625	-0.3811504
174	0xbea66c17	-0.3250434
175	0xbbe48903	-0.006974341
176	0xbdaf3ac0	-0.085561275
177	0x3f05032b	0.5195796
178	0xbf4d2b5c	-0.80144286
179	0x3f00c573	0.50301284
180	0x3ed6a363	0.4192153
181	0xbd9d8166	-0.076906964
182	0x3eea765e	0.45793432
183	0x3e98e0c1	0.29858974
184	0x3f05546e	0.52081954
185	0x3f04bdcf	0.51852125
186	0x3deca713	0.115553044
187	0x3ec5e6d1	0.3865266
188	0x3ad46360	0.0016203932
189	0x3e848ae6	0.2588722
190	0x3dd74164	0.10510519
191	0xbe93c8f2	-0.28864247
192	0x3ca598f2	0.020214532
193	0x3d9a4b58	0.07533902
194	0x3dd50360	0.10401034
195	0x3e1e7b5b	0.15476744
196	0x3e060d81	0.13091089
197	0xbd8fd390	-0.07022774
198	0x3d76fb6f	0.06029838
199	0x3e0dd11f	0.13849305
200	0x3da36a83	0.079793
201	0xbc88333c	-0.016625993
202	0x3c328cab	0.010897796
203	0xbd1c5cc2	-0.0381744
204	0xbce988ba	-0.02850758
205	0x3e1a1402	0.15046695
206	0xbe0bdc93	-0.13658361
207	0xbe1daf06	-0.15398797
208	0xbe16526b	-0.14679877
209	0xbd894f4d	-0.067045785
210	0x3d61339b	0.054980855
211	0xbe041027	-0.12896787
212	0xbd843a87	-0.06456476
213	0xbd285bc4	-0.04110314
214	0x3dcbeb4d	0.099569894
215	0xbe2baa4b	-0.1676418
216	0x3d25c904	0.040474907
217	0x3cb8c1a9	0.022553282
218	0x3e25c574	0.16188604
219	0x3e01a99e	0.1266236
220	0x3d8b2eb1	0.06796015
221	0x3e04d881	0.12973215
222	0xbbe433e0	-0.006964192
223	0xbde63f32	-0.11242522
224	0x3dc6027e	0.09668444
225	0x3e1b5f70	0.15173125
226	0x3ea3416c	0.3188585
227	0x3e1bdf10	0.1522181
228	0xbdfb365e	-0.12266229
229	0x3ce5c419	0.028047608
230	0xbde0d2ee	-0.10977732
231	0xbd14ad58	-0.036298126
232	0x3e2d3dac	0.16918057
233	0xbdfcdb60	-0.1234653
234	0x3ec8858a	0.39164382
235	0x3e2b88f1	0.16751458
236	0xbcbf9250	-0.023385197
237	0x3e095f20	0.13415194
238	0x3dd53b0d	0.10411654
239	0x3e826fd6	0.2547595
240	0x3e165045	0.14679058
241	0xbd86e671	-0.06586922
242	0x3ea2800d	0.3173832
243	0x3d21effa	0.0395355
244	0xbe3a59d9	-0.18198337
245	0xbe079093	-0.13238744
246	0x3cf087fc	0.029361717
247	0xbdadd21c	-0.08487341
248	0xbe0b3625	-0.13594873
249	0xbe847486	-0.2587015
250	0xbdc34473	-0.0953454
251	0xbd7d00b1	-0.061768238
252	0x3e389d0b	0.18028657
253	0x3db3c6b4	0.08778134
254	0xbe1037e1	-0.14083816
255	0x3da5efa0	0.081023455

fc.1.bias f4 [16]
0	0x3f00f602	0.5037538
1	0x3ce2e6f0	0.02769801
2	0x3db95474	0.09049311
3	0xbd3a8011	-0.04553229
4	0x3e496042	0.19665626
5	0x3e8f63ab	0.28005728
6	0xbe222968	-0.15836108
7	0x3cf78a7c	0.030217402
8	0xbe11a665	-0.1422363
9	0x3eb9083c	0.36139095
10	0x3def72b7	0.11691802
11	0xbe1f7da1	-0.15575267
12	0x3e77d482	0.24202159
13	0xbd503cbc	-0.05083917
14	0x3d8832e6	0.06650333
15	0x3d808798	0.062758625

fca.weight f4 [1, 16]
0	0x403e9633	2.9779174
1	0xbfa042a6	-1.252034
2	0xbfa69b3e	-1.3016126
3	0xc0adbf81	-5.429627
4	0xc02244da	-2.5354524
5	0x402f5974	2.7398348
6	0x3ca8019b	0.020508578
7	0xbf3f4cf1	-0.7472678
8	0xbffad9b2	-1.9597685
9	0x40113b83	2.2692573
10	0xbf9f349f	-1.2437934
11	0x3e5fc602	0.21852878
12	0x3feb9e49	1.840768
13	0xbf8d5164	-1.1040463
14	0xbe46e960	-0.19424963
15	0x3f867dc7	1.0507134
