data/reach/reachnet_mlp.pth (torch, 276311 bytes, 5 tensors)

fc.0.weight f4 [256, 9]
000000 d7 a7 d3 be 42 62 bf bd ed bd 38 3f 73 85 22 3f
       -0.4133899 -0.09344913 0.72164804 0.6348488
000010 6d 60 93 3e 23 32 c9 bd 19 f8 ad 3e 4a fa 48 bd
       0.28784505 -0.09824016 0.33978346 -0.04906682
000020 a7 6b fd bd e8 0d 25 be a8 85 53 be 2c 29 24 bf
       -0.12374049 -0.16118586 -0.20656455 -0.64125323
000030 63 aa a6 3e 3a eb 4c 3d 99 ac ae bd f1 70 1e 3e
       0.3255187 0.050029017 -0.08529014 0.15472771
000040 53 9d 59 3e 07 a4 66 3e b3 18 8a 3e 43 9f 3d 3e
       0.2125142 0.22523509 0.2697197 0.18517785
000050 fe 29 22 bb 80 64 5b be a9 2a 50 be 07 d7 41 be
       -0.0024744268 -0.21425056 -0.20328774 -0.18929683
000060 b8 cf 3a 3e 36 31 37 3e ce 45 1c 3d a5 f8 11 3e
       0.18243301 0.17889866 0.03815251 0.14255007
000070 67 18 97 be 10 ed 63 3d 7b 24 0e 3e b9 f2 79 be
       -0.29510805 0.055646002 0.13881104 -0.24408998
000080 d7 5b c5 3e 58 08 59 3e 01 5d 90 3e c7 78 54 3e
       0.3854663 0.21194589 0.28195956 0.20749198
000090 84 98 3c be 17 22 79 3e 91 b2 64 3e 62 a4 30 be
       -0.18417555 0.2432941 0.22333743 -0.17250207
0000a0 f0 9a b0 be f6 38 92 3e 0c 4d 28 3d e8 c7 73 3e
       -0.34493208 0.28559083 0.041089103 0.23806727
0000b0 bf a1 b6 3e bd 43 3b be c2 46 a9 be 74 b0 21 3f
       0.35670277 -0.18287559 -0.33061796 0.6315987
0000c0 62 96 1c 3e d3 fb 87 bd 42 b8 b0 be b7 03 e2 bd
       0.15291741 -0.066398285 -0.34515578 -0.11035865
0000d0 b3 1a 4a 3d 76 f2 6f 3d 36 1c 65 3e 78 fe 9c 3e
       0.04934187 0.05858084 0.22374043 0.30662894
0000e0 30 e4 46 bf b6 66 f2 bd 35 cd 3c be 8c 16 48 be
       -0.77691936 -0.11835997 -0.18437655 -0.19539851
0000f0 9d df f4 3d 8f 63 41 be 91 b4 d0 3d e6 9a eb bd
       0.11956713 -0.18885635 0.1019069 -0.11504154
000100 1a 6b 6f be dd 9c db 3d 5f 2e 3f 3e 59 92 3c 3e
       -0.233807 0.10723279 0.18670033 0.18415202
000110 d6 36 e0 3b 6e 52 ac 3e 59 7b 60 be d1 5f a0 be
       0.0068424745 0.3365664 -0.21922053 -0.31323102
000120 9b ad 50 be f6 1b 19 3d 1f df 8b be be 91 b9 bd
       -0.20378725 0.03738018 -0.27318665 -0.09061001
000130 de 81 0e 3c 03 b9 f9 bd f5 d9 89 be 38 05 b2 be
       0.008697955 -0.12193491 -0.269241 -0.34769607
000140 16 20 27 3e d8 5a af be 7f 42 14 3e 08 20 0d bf
       0.16320834 -0.34248996 0.14478491 -0.55127
000150 1c 15 ca 3d de 6e 33 3e 23 e5 2e 3e 54 68 62 3e
       0.098673075 0.17522761 0.17079596 0.2211011
000160 aa a8 f4 bd c8 b0 52 3d 42 a7 dd be f4 87 9b be
       -0.119462326 0.051438123 -0.4329167 -0.30377162
000170 8e 32 46 bf 79 95 39 be 7e 9c 0e be 29 8a 1f be
       -0.7742089 -0.18123426 -0.13926885 -0.15580048
000180 9f 22 72 be 01 22 0b be 75 31 a6 ba 10 56 d0 3e
       -0.2364602 -0.1358719 -0.0012679534 0.4069066
000190 1c 69 a7 be a0 80 00 bf fb fe 3a be 54 2b b6 3e
       -0.3269738 -0.50196266 -0.1826133 0.35579932
0001a0 69 39 ae be 55 a6 15 be cf 5e fe 3c d3 15 04 bf
       -0.34028175 -0.14614232 0.031051068 -0.515958
0001b0 60 1c c5 be ea b5 8b be a5 cf 13 be d6 c8 26 bd
       -0.3849821 -0.27287227 -0.14434679 -0.040718876
0001c0 49 4d ed bd 09 f7 90 be 2d 41 94 3e 09 15 0f 3d
       -0.115870066 -0.28313473 0.28955975 0.03493217
0001d0 d5 8f 67 be 61 f1 54 3e dc f1 22 be cd 95 1d bf
       -0.22613461 0.20795204 -0.15912575 -0.615567
0001e0 1b 47 df bd 11 ab af 3e e8 7e dc be 81 96 ac bd
       -0.10902234 0.343102 -0.43065572 -0.08427144
0001f0 05 c4 f4 3d b0 f9 bd be 98 80 16 be f3 7f 65 bd
       0.1195145 -0.3710456 -0.14697492 -0.056030225
000200 b8 53 9a 3c db 75 69 3e 7d 0d 82 3e 1f 9d 01 3e
       0.018838748 0.22798865 0.25400916 0.12657593
000210 73 63 a4 bd 29 a6 20 bd c4 c7 c1 3d ae 6d 1d 3f
       -0.08026781 -0.039220963 0.094619304 0.6149548
000220 11 6f ed 3d 7b 92 e9 be 78 ab 3f 3e 05 5c 67 3e
       0.1159345 -0.45619568 0.18717754 0.22593696
000230 4a b9 8d 3d 64 25 2c be 86 d7 2a be 73 85 83 3e
       0.06920107 -0.16811138 -0.16683778 0.2568775
000240 b6 09 af be ee 0c 01 3d 6f c0 ad be c2 fd a5 be
       -0.34187096 0.03150647 -0.33935878 -0.32420164
000250 3b 8f 81 be b1 e7 06 3e e9 be 31 3e b3 e7 85 3e
       -0.2530459 0.13174321 0.17357983 0.26153335
000260 b4 6b 1d be 73 1c 5f be ff b5 59 3e 30 eb f0 3d
       -0.15373117 -0.21788196 0.21260832 0.117636085
000270 74 ba 1f 3e 57 65 8a bd d2 c6 ec bd 9b 9c 8c 3e
       0.1559847 -0.0675761 -0.115613595 0.2746323
000280 e5 35 1c be 9d 01 b0 be bb 54 e3 bb d5 a5 53 bd
       -0.15254934 -0.3437623 -0.006937591 -0.05167182
000290 99 16 18 bf dc d3 9e be 87 bc 52 bd 4e ec 94 3e
       -0.5940948 -0.3102101 -0.051449325 0.29086536
0002a0 00 3d 75 3e 5f fb 5e 3d 28 32 42 3e c9 f8 28 3e
       0.23949051 0.054438945 0.18964446 0.16501154
0002b0 dc b0 ea bd b6 56 32 3f 0c 84 35 3e 58 07 cc bd
       -0.114595145 0.6966356 0.17726153 -0.09962338
0002c0 84 63 6e 3e 1a 0c b6 be 6d a3 33 3e b2 f7 8a 3e
       0.2328015 -0.35556108 0.1754281 0.27142102
0002d0 eb 07 71 be 66 11 a6 3e 25 0a 0a bf 68 dd 48 bd
       -0.23538177 0.3243515 -0.5392173 -0.049039274
0002e0 9a 59 42 3e 66 a7 61 be 77 5b 4b 3e 93 17 7e 3d
       0.18979493 -0.22036514 0.1985911 0.0620342
0002f0 2c 54 1b be dd 71 6c 3d 3f 6a b3 be 9e 0e a6 be
       -0.15168828 0.057725776 -0.35041997 -0.32433027
000300 97 c5 f8 3d ea 20 8e 3e 17 ac 82 3d 4c b5 bf bc
       0.12147062 0.27759486 0.0638048 -0.023401879
000310 11 29 9b bd 00 ec 6d 3e e4 76 96 be cb ed 02 3e
       -0.07576192 0.23234558 -0.2938758 0.12786023
000320 01 f9 24 bf e9 71 10 3d f0 59 8a be fb 3a 06 3f
       -0.6444245 0.035264883 -0.27021742 0.5243375
000330 b3 76 36 be b0 35 68 3e 9f 2f 45 3c 19 7b a9 3e
       -0.17818718 0.2267673 0.01203528 0.3310173
000340 6f 76 ca bb 30 d7 20 bf 08 3e e9 bc 79 f7 b7 bd
       -0.006178669 -0.6282835 -0.028471962 -0.089827485
000350 83 de 12 be fe 35 1a 3e cb f8 ba 3d d2 7c 3c be
       -0.14342694 0.15059659 0.09129485 -0.1840699
000360 8f 0b d5 3e 38 93 01 3e 9f 27 02 3e 48 24 81 3e
       0.4161038 0.12653816 0.12710427 0.25222993
000370 ab c9 59 3e 0f 86 eb bc b9 b3 17 be b9 c6 4b 3e
       0.21268336 -0.028750448 -0.14814653 0.19900025
000380 3b 57 92 3e 04 c4 53 be 86 33 18 be ea 04 1f bf
       0.28582177 -0.20680243 -0.14863405 -0.62116873
000390 7c ca 9a bd ca 71 b6 3c d9 c0 18 3c 54 58 6d be
       -0.07558152 0.022271056 0.009323322 -0.23178226
0003a0 5d 8a 3a bd 13 e2 c0 3d b0 5a b0 be d6 2a 8a 3e
       -0.04554211 0.0941812 -0.3444419 0.26985806
0003b0 0e 22 cb 3e 3a 90 47 3d 2b 62 80 3e b8 13 84 3e
       0.3967442 0.04872153 0.25074896 0.25796294
0003c0 c4 12 82 3e 6e 7f 61 be 51 28 a5 3e 05 c7 61 3e
       0.25404942 -0.22021267 0.3225732 0.22048576
0003d0 a0 4b b9 3d cf aa 39 3e 40 03 36 be 31 9d 5b 3e
       0.090476274 0.18131565 -0.17774677 0.21446683
0003e0 53 a8 40 3e 8b c0 4e bd 02 83 26 3e 70 5b 3a be
       0.1881421 -0.050476592 0.16260913 -0.18198943
0003f0 b6 39 ec 3d f5 f4 d7 be 3f 05 47 3f a6 90 3f 3d
       0.11534445 -0.42179075 0.7774238 0.046768807

fc.0.bias f4 [256]
000000 d5 65 f9 be 9a 05 3c 3d 24 24 04 3e d2 d8 58 3e
       -0.48710504 0.04590378 0.12904412 0.2117646
000010 eb 14 25 be bd 65 df bd 96 d6 12 3e ce 2f f5 3d
       -0.16121261 -0.10908077 0.1433967 0.11972009
000020 cb cd 75 3b b3 4a 1b 3e 25 e1 83 3e 1d f9 13 bd
       0.0037506695 0.15165214 0.2575771 -0.036126245
000030 03 ad ac 3e 55 d0 82 be 35 13 06 3e 34 dd 7e 3e
       0.33725747 -0.2554957 0.13093264 0.2488907
000040 c8 ab a9 3d 2a 15 8c 3d 83 4e 8a 3e 17 52 5b be
       0.08284718 0.06839974 0.27013025 -0.21418034
000050 7e 82 3a be 7e 5b 7f 3d 29 e8 5d be 66 f3 26 3d
       -0.18213841 0.062343113 -0.21670593 0.040759467
000060 b9 6f 84 be b5 e1 f9 bc 59 d3 fa 3d 1b 71 e4 bd
       -0.25866488 -0.030503133 0.122473426 -0.11154386
000070 33 82 6a be d6 e2 90 3d 15 03 ad be ca 0f 0d be
       -0.2290123 0.070745155 -0.33791414 -0.13775554
000080 81 8e be 3e 25 15 d0 be bd 30 5b 3e ac 46 80 3e
       0.37218097 -0.40641132 0.21405311 0.25053918
000090 10 fc 9f be d7 34 af 3e 44 d8 9d 3e b6 00 34 bc
       -0.31246996 0.3422 0.3082906 -0.010986498
0000a0 3e cb 27 3e c2 df 98 be 65 fc 29 bd 46 7b a9 be
       0.16386124 -0.29858214 -0.041500468 -0.33101863
0000b0 c1 5d e8 bd ce e7 90 be 6a 4a bf 3d e1 c2 b2 be
       -0.11346007 -0.28301853 0.09340365 -0.34914306
0000c0 c4 10 e4 bc ea 1a 56 3d 72 1e 8f 3e 09 1a 9e 3d
       -0.027840026 0.05227176 0.27952915 0.077198096
0000d0 f7 ab 2d be d5 0f c8 3d a4 7d f5 3d bc 6a 03 3d
       -0.1696013 0.09768645 0.11986855 0.03208421
0000e0 1a a3 a8 3d 34 7f 1a be 10 02 51 be 07 65 ab be
       0.08234234 -0.15087587 -0.20410943 -0.33475515
0000f0 fc 91 28 3e f5 cb 87 3e b5 a7 08 3f 8b de 6e ba
       0.16461939 0.26522794 0.533809 -0.0009112141
000100 56 31 4c 3e b5 76 85 bc e2 d2 11 3f 79 c5 ab be
       0.19940695 -0.016291955 0.56962407 -0.33549097
000110 a0 ca 82 be b5 2e 7f be 2e fb 7a be bb e3 cc be
       -0.25545216 -0.24920161 -0.2450988 -0.40017495
000120 fa b2 98 be c6 57 96 3e b7 d9 13 3d e9 5c 46 3e
       -0.29824048 0.2936384 0.0360963 0.1937138
000130 c3 86 94 3b 54 5d 37 be 67 00 39 3d d0 44 25 3e
       0.0045326664 -0.17906696 0.0451664 0.16139531
000140 38 b1 9a be f2 b4 64 be 8b fc e6 be 5c ba 0f 3e
       -0.30213332 -0.2233465 -0.4511455 0.14035934
000150 89 e2 cb bd f7 34 aa bd 34 10 3d 3e 9c d0 21 be
       -0.099553175 -0.083108835 0.18463212 -0.15802234
000160 0f f5 cc 3e e2 4a 62 bd 08 4e 4a bd 9e 8b 09 be
       0.40030715 -0.055247195 -0.049390823 -0.13432166
000170 7c 5e ac bc 30 da 34 3e 86 4b b0 be 2a c6 a3 be
       -0.021041147 0.17661357 -0.3443262 -0.31987125
000180 81 3f 89 be 9e b4 17 3c af e9 5c be bd 51 bd 3e
       -0.26806262 0.009259371 -0.21573518 0.36976424
000190 08 93 12 3e 83 69 d1 bb 06 d3 47 3e 42 46 c5 bd
       0.143139 -0.006390752 0.19514093 -0.09632541
0001a0 62 67 f2 3d b8 1f 08 bd 8a 03 74 3e 1d 49 58 3d
       0.11836125 -0.033233374 0.23829475 0.0528041
0001b0 55 ce b2 3c 1b ee ad bc da 06 cd 3c 3e 4d 5f be
       0.021826902 -0.021231702 0.025027681 -0.2180681
0001c0 5b 1e 3c 3e c7 d1 10 3e ed db 97 be 9a db d2 3d
       0.18370955 0.14142524 -0.29659978 0.10295792
0001d0 cd 13 ae be ed 1d 98 be 8a d8 61 be fb 96 ae 3d
       -0.33999482 -0.29710332 -0.2205526 0.08524891
0001e0 35 1a 35 be 59 a8 6d 3d 0d 81 60 3c 5e de 07 3d
       -0.17685778 0.058021877 0.013702643 0.03317105
0001f0 0e fb 49 bd 81 4d b4 3d d5 97 8d be 7d ba 88 3e
       -0.04931169 0.08803845 -0.276549 0.2670478
000200 df 2b 58 bd ad 4e 56 bc 96 95 76 be dc af 95 3e
       -0.052776214 -0.013080281 -0.240805 0.29235733
000210 97 e8 a5 3e 97 63 02 3e fe 88 40 3b 2b 84 92 be
       0.32404014 0.12733303 0.0029378529 -0.2861646
000220 76 54 4f 3e 7f f2 3c 3e d9 b7 df ba 57 6c 02 be
       0.20247063 0.1845188 -0.0017068341 -0.12736641
000230 cb 24 e0 bd 8a 2e 23 3f 28 ab 20 3f 5a 0a 9a be
       -0.10944518 0.6374289 0.62761164 -0.30086023
000240 df ac b1 3d 61 de 0d bd 2b 09 9e bc 78 d9 67 be
       0.08675551 -0.034635905 -0.019291481 -0.22641551
000250 3c 76 95 bd 17 42 36 3e 43 b0 8b be 8a 67 0d be
       -0.07297942 0.17798649 -0.27282915 -0.13809028
000260 a3 87 3a 3e 80 75 7f be 69 d3 d1 3d ed 93 7e be
       0.18215804 -0.24947166 0.102454014 -0.24861117
000270 cf 94 a7 3d 81 35 cb 3d 4f cf 72 3e 70 3d 04 3d
       0.0818268 0.099223144 0.23711894 0.032285154
000280 6f 4a 41 be 73 14 cb 3d 54 3a 90 be 81 fb 0f be
       -0.1887605 0.0991601 -0.281695 -0.14060785
000290 bc 09 54 be 80 6b 8a 3e c6 f2 98 3e d7 d3 38 3e
       -0.20706838 0.2703514 0.2987272 0.1804956
0002a0 1e 97 b5 be 41 82 9e 3e c2 b0 8f 3e 87 b4 2b be
       -0.35466856 0.3095875 0.28064543 -0.16768084
0002b0 1e 3b c7 3d c1 05 3a be b3 49 fe 3d 16 e3 ef 3d
       0.097280726 -0.18166257 0.12416401 0.11713235
0002c0 36 c5 ba 3d 8f ab 29 3d 06 72 ad 3e 92 8e 96 3e
       0.09119646 0.041423377 0.33876055 0.29405648
0002d0 a3 77 92 3e 91 b0 15 be 5e 1a 4d be b2 46 70 3d
       0.286069 -0.14618136 -0.2002959 0.05866117
0002e0 3c 15 58 3e 88 2d 82 3e 5e a1 b3 3e b0 70 81 bc
       0.2110185 0.25425363 0.3508405 -0.015800804
0002f0 87 5f 53 be b6 e6 58 be e8 72 99 3c eb 6e 00 bf
       -0.2064191 -0.21181759 0.01873155 -0.5016925
000300 70 b2 4e 3e 3e b5 09 be 5a 2c fd bd a1 e9 95 be
       0.20185256 -0.13448045 -0.12361975 -0.29279807
000310 f8 25 b7 be cf 80 2c 3f 08 ef 84 be 6d 8b 30 be
       -0.35771155 0.67384046 -0.25963616 -0.17240687
000320 27 50 68 3e f8 fe f5 3d 7b 9a 83 be 66 90 e1 3c
       0.22686826 0.12011522 -0.25703797 0.027534675
000330 de 1c 82 bd a9 a5 d0 bc 63 05 09 3e 5d 8d b7 3e
       -0.06353162 -0.025469618 0.13380961 0.3585004
000340 53 1b 96 3e 0b d4 56 3e 14 aa 14 be 1e 21 0f be
       0.29317722 0.20979325 -0.14518005 -0.13977477
000350 73 76 a9 be 85 70 68 be 1b 78 46 3d 36 c3 2c 3e
       -0.33098182 -0.22699173 0.048454385 0.16871342
000360 07 df a0 3e 56 5f 08 3e 6b 3e b9 3e 30 2d 1d 3e
       0.31420156 0.13317618 0.36180434 0.15349269
000370 46 5a 1b 3c 59 e8 a2 be bd 69 2d 3e 80 e3 33 be
       0.009481972 -0.31817892 0.16934867 -0.17567253
000380 7b 56 85 3e 83 dd b4 3e f6 5b 9b ba ef 92 94 3e
       0.26042542 0.3532525 -0.0011852968 0.2901835
000390 d1 60 9d 3e f0 02 41 be 5f 43 29 be da 16 84 3e
       0.30737928 -0.18848777 -0.16529606 0.25798684
0003a0 28 8a d4 3d 6f b6 4e bd d5 50 c9 3c 49 a7 a2 3d
       0.10377914 -0.05046695 0.024574677 0.07942063
0003b0 13 3e ae be 7a 96 0f 3e 99 df a3 3e 65 5d 8a be
       -0.34031734 0.14022246 0.3200653 -0.2702438
0003c0 43 97 06 3d 6b 0e 6f be b0 0c c7 3e b8 25 56 be
       0.0328591 -0.23345344 0.38876867 -0.20912826
0003d0 08 44 c1 be ef 15 c0 be 3e 0f 81 3d 5c 27 4e be
       -0.37747216 -0.37516734 0.06301735 -0.20132202
0003e0 a5 dd 65 3d ac 27 7f bd ab 6b 18 be e9 de 84 be
       0.05611958 -0.062293693 -0.14884822 -0.25951317
0003f0 02 c8 92 3e c4 fd 86 3d c0 cb 42 3d 49 40 e6 be
       0.2866822 0.06591371 0.047557592 -0.4497092

fc.1.weight f4 [256, 256]
000000 28 46 17 bd ab b4 55 3d ff 5c ce 3b 9c 49 5c bc
       -0.03693214 0.05217425 0.006297707 -0.013445284
000010 9d 52 99 3c 8c 1b 67 3d f6 a1 19 3d ab ab c8 3c
       0.01871615 0.056422755 0.037507974 0.02449592
000020 d0 4f 0c bd 37 a6 c5 3c e3 be 64 3d ef b6 f7 bc
       -0.034255803 0.024127109 0.055846106 -0.030238597
000030 81 ef 49 3d c6 42 44 bd 70 98 b4 3c 11 9b 0a bd
       0.049300674 -0.047915243 0.022045344 -0.03383929
000040 16 e6 50 bd 61 ea 85 bc c2 1b f4 bb 02 e8 41 3d
       -0.051000677 -0.016347112 -0.007449598 0.0473404
000050 cd b2 89 bd 93 b8 0b 3c 2e a4 bb 3c 8f 38 38 bd
       -0.06723557 0.008527893 0.022905435 -0.044975813
000060 de c0 74 bc 24 91 30 3d 8d df d6 3c 56 af 60 3d
       -0.014938561 0.043107167 0.026229644 0.054854713
000070 49 58 fc 3a 5d 03 5f 3d 19 49 8f bc bf 4b 24 bd
       0.0019252385 0.054446567 -0.01749091 -0.0401113
000080 9b 76 5d bc 6e a6 02 3d ee de d1 3c ee ff d2 3c
       -0.013517047 0.031897 0.025618996 0.025756802
000090 5f 46 8a 3d 36 25 75 bb 24 25 04 bd 10 9e e5 3c
       0.067517035 -0.0037406213 -0.032261983 0.028029472
0000a0 70 64 a8 bc 45 8a 7c bd 85 5f aa 3c ec 1f 41 3d
       -0.020555705 -0.0616553 0.0207975 0.047149584
0000b0 ac 5e 0d 3c 44 d9 fe bc 30 7d 86 bc 68 db 54 3d
       0.008628529 -0.03110946 -0.016417116 0.051967055
0000c0 b5 0d 92 bd a0 f9 1e 3d ab 20 10 bd c5 3a 32 3d
       -0.07131521 0.03881228 -0.035187405 0.04351308
0000d0 87 9e 31 bb a0 3e 1f 3d 68 33 e0 bc fc ac 0e 3d
       -0.0027102546 0.038878083 -0.027368262 0.03483294
0000e0 b0 99 6f bd 06 b4 e1 bc 8b 72 35 bd 31 b6 86 bd
       -0.058496177 -0.027551662 -0.04429869 -0.06577719
0000f0 ea ce 58 3d ab 4e 77 bc 75 f1 37 3d c6 f9 26 3d
       0.052931704 -0.0150944395 0.044908006 0.040765546
000100 da 61 69 bb ac 06 c5 bc 88 55 9a 3d b2 c4 56 3d
       -0.0035611303 -0.024051033 0.07535845 0.052433677
000110 f6 9f f6 3c 84 41 fc 3c be 56 a3 3b 4f 76 26 3d
       0.030105572 0.030792959 0.0049847057 0.04064017
000120 f6 67 b0 bc 5c 9f f6 3c 3c 2c ba bd e4 54 ec 3c
       -0.021533947 0.030105285 -0.09090468 0.028849073
000130 c3 58 8f bc b1 85 6f 3c 19 1b 2c 3c 8e 2f 05 3d
       -0.01749838 0.014619277 0.010504507 0.032516055
000140 89 7c 80 bd 1b 08 4f 3d 5d c5 00 3d 31 db 80 bc
       -0.06273753 0.05054484 0.03143822 -0.015729519
000150 17 55 2c bd 15 bf 79 3d 3f 56 ed bc 1e b0 f5 3b
       -0.042073335 0.060973246 -0.02897179 0.0074978014
000160 54 9e 8c 3c bd 56 55 3c cb 63 70 bd a7 bf 02 bd
       0.01716534 0.013021168 -0.05868892 -0.031921055
000170 c2 cd 0b bd 73 35 98 bd bb d0 54 3c 98 be 16 3d
       -0.034131773 -0.0743207 0.012989218 0.036802858
000180 ac eb 4b 3c 84 fe 6e bd d2 f5 78 3c 92 f0 2a 3d
       0.012446325 -0.058348194 0.015195327 0.041733332
000190 55 88 3e bc 67 54 21 3d 35 ba 25 3d 25 77 19 bd
       -0.011629184 0.039387133 0.040460784 -0.03746714
0001a0 b0 d8 9c 3c 17 23 3d bd 84 88 2f 3d 3b 10 0e bd
       0.019146293 -0.046176042 0.0428548 -0.034683447
0001b0 89 cc 4a 3d 95 46 36 bd ca 27 67 3d 05 d7 62 bc
       0.049511466 -0.044500906 0.05643443 -0.01384521
0001c0 a8 9d 6b 3d c6 ea 04 bd da 27 f0 3c 3c 30 8b 3d
       0.0575234 -0.03245046 0.029315878 0.06796309
0001d0 d4 5b 69 bd 9a a5 a3 3c 91 0e 10 3d 17 2a 3c bd
       -0.05697234 0.019976426 0.03517014 -0.045938578
0001e0 b1 06 6e 3b ef ea d5 bd 00 4d 18 3c 0f 7b e5 3c
       0.0036319906 -0.10445201 0.009295702 0.02801278
0001f0 55 17 26 3d 9b bc 1d 3d 90 4d 59 3d 4b ee 04 3d
       0.040549595 0.038509946 0.053052485 0.032453816
000200 07 de 4c 3c b7 6f 6a 3c b9 e4 c0 bc c3 88 9e bd
       0.012504107 0.014308861 -0.023546563 -0.07740929
000210 a5 6c a5 3c 89 0f a0 bc 72 cd 24 bd 5e d4 cc 3a
       0.020193407 -0.019538658 -0.04023499 0.0015627255
000220 d0 42 11 bc 2b 08 83 bd 54 a9 02 bd 95 60 57 3c
       -0.008866027 -0.06398042 -0.031899765 0.013145586
000230 b4 eb 42 3c 04 df b3 3b 83 df 8a bd 0f e0 16 3d
       0.011897016 0.005489232 -0.06780913 0.036834773
000240 eb fa 74 bc 70 1c a9 bd 1d ba 2b 3d d0 35 35 3d
       -0.014952402 -0.08257377 0.04192554 0.044240773
000250 2f 8a d3 bc 9a 08 d8 bc 7c 09 7e bb 23 7a 5a 3d
       -0.025822727 -0.026371289 -0.0038762977 0.053339135
000260 50 81 6e 3d 1a 9b 8e bc 17 a7 18 bd fe f6 73 bd
       0.05822879 -0.017407943 -0.037268724 -0.059561722
000270 35 b6 d3 3c a4 42 b0 3c 53 5f 78 bd 9e 46 7c 3d
       0.025843719 0.021516152 -0.060637783 0.061590783
000280 7b 38 ac bc c3 e8 ae 3c bd 4b 12 3c ba 7c 26 3d
       -0.021023026 0.021351224 0.00892919 0.040646292
000290 c6 77 1d 3a e5 56 08 bd 44 67 a6 3c 27 ca ba 3c
       0.00060069223 -0.033285994 0.020312913 0.022801472
0002a0 ca 69 0a bd 4f 93 05 bd 2a e0 f7 3c fb ce cd bc
       -0.033792295 -0.032611188 0.030258257 -0.02512311
0002b0 3e 27 4e bc 3a f7 29 3d 82 64 9e bc d2 19 d4 3c
       -0.012582598 0.04149554 -0.019335035 0.025891218
0002c0 f5 4c 40 bb 66 fb 21 bd 8b 50 c4 3c 90 27 f9 bc
       -0.0029342745 -0.039546393 0.023964187 -0.030414373
0002d0 5f 67 4f bd 00 a9 33 bd 42 e6 36 bd 2f 4d 83 bc
       -0.05063569 -0.043862343 -0.044653185 -0.016028015
0002e0 1c 62 c5 3c ba 20 7f 3c bc e3 f7 bc f5 02 18 3d
       0.024094634 0.015571767 -0.03025996 0.037112195
0002f0 b1 fd 48 3d e7 12 de bc 3c fd c8 bc b9 1d 1f bd
       0.049070064 -0.027108623 -0.024534814 -0.038846705
000300 96 98 f3 bb 16 9d 0b bd 9b 49 29 3d 4f 93 ec bc
       -0.007433961 -0.034085356 0.04132996 -0.028878836
000310 09 a2 2b 3d 92 98 a2 bd ff 42 00 bb e1 37 09 bd
       0.041902576 -0.07939257 -0.0019571183 -0.033500556
000320 4f 6a 09 bc ac 84 41 bd 5d b4 c9 3c 28 0d 40 bd
       -0.008387162 -0.047245666 0.024622137 -0.046887547
000330 29 d7 0a bc a9 c3 d4 bc a3 b3 6f 3c 14 43 4a 3d
       -0.00847415 -0.025972204 0.014630231 0.049380377
000340 e1 b4 54 bc 38 b8 5c 3c ff c0 42 3c f4 45 6c bd
       -0.012982578 0.013471656 0.011886834 -0.0576839
000350 97 3f cc bc ad 17 e6 3b f5 9e e4 3c 99 be 85 3c
       -0.024932666 0.0070218653 0.027907828 0.016326236
000360 eb a7 37 bd 92 75 53 3d 0c 66 43 3d 20 92 9b bc
       -0.044837873 0.051625796 0.04770474 -0.018990576
000370 6e a9 af 3d 19 c8 92 bd 5d 39 8d 3c 27 98 fb bc
       0.08577238 -0.07167072 0.017239267 -0.0307122
000380 89 8e 36 bc be 0e 2e bd 13 4f 26 3d e9 9a 83 bd
       -0.0111423815 -0.042494528 0.040602755 -0.06426031
000390 93 6f 0f 3d d5 bc a0 3c d1 00 0b bd 55 e3 25 bd
       0.035018515 0.019621292 -0.033936325 -0.040500004
0003a0 1f d7 81 3d 1b 7f 95 3c 9b d5 76 bd 6d 13 18 bd
       0.06339859 0.018249085 -0.060262304 -0.0371279
0003b0 1e f4 18 bd 56 1e 58 bb 8a 8d 8c 3d 5d af a1 bd
       -0.037342183 -0.0032977066 0.06862934 -0.07894776
0003c0 91 33 fe 3c 59 ca 1c 3d 2b e8 54 3d fb 54 76 3d
       0.031030448 0.03827891 0.051979225 0.060139637
0003d0 24 09 67 bb 8b 62 b5 bd 63 1c e0 3b 17 1a 85 bb
       -0.003525325 -0.08856686 0.0068393215 -0.004061948
0003e0 e0 2f f5 3c 8a 28 d7 bb 37 a2 69 bd 1f 57 1a bc
       0.029930055 -0.006566112 -0.057039466 -0.009420185
0003f0 31 a6 8d bb 7a 76 71 bc b4 ff 51 3c d2 43 92 bc
       -0.00432279 -0.01473772 0.012817312 -0.017854605

fc.1.bias f4 [256]
000000 2c c6 14 3d 72 93 4c 3c bc 1d 31 3d c4 97 43 bd
       0.036321804 0.012486326 0.043241248 -0.047752157
000010 b5 c8 3b 3d 0e 2f 6e bd 97 d9 30 bc 8c 82 83 3d
       0.045845706 -0.058150344 -0.010794065 0.06421384
000020 37 1d 5f 3d 33 09 b6 3c 48 e2 54 bd c9 09 6c 3d
       0.05447122 0.022221183 -0.05197361 0.05762652
000030 40 01 fa bc d9 52 5c 3d 6e ad 9f 3d 84 bc 9d 3d
       -0.030518174 0.053789947 0.07796751 0.07701972
000040 76 51 22 3d 38 44 a9 3d 24 ff 9a bd 1d f1 13 3d
       0.03962847 0.08264965 -0.075681955 0.036118615
000050 48 e0 94 bc 93 de 3b bc d8 e4 05 be 24 3c 1f bd
       -0.018173352 -0.01146664 -0.13075578 -0.038875714
000060 0e ae ae 3c ad 60 1b bd d2 79 6e 3d f9 63 9a bc
       0.02132323 -0.037933994 0.058221646 -0.018846499
000070 92 e4 b5 3c 6a e0 96 bd f3 97 b9 bc 82 20 87 bc
       0.022203717 -0.07367022 -0.022655463 -0.016494993
000080 0d 49 8e 3a 24 74 b0 3c ee cc 87 3c 6c 52 f4 bc
       0.0010855511 0.021539755 0.01657721 -0.029824458
000090 cd 0f 3e 3b ce 3e f4 bc c8 5f eb bc 8d 0c 39 bd
       0.0029001117 -0.029815104 -0.028732195 -0.045177985
0000a0 ce f4 2a 3a 23 c3 7c bd 27 3c 01 3d 52 b0 fd bc
       0.0006521464 -0.061709534 0.031551506 -0.030967865
0000b0 aa 9e bc bc 77 3e 46 bd d3 d2 0b bd 17 34 75 3c
       -0.023024876 -0.048399415 -0.034136605 0.0149660325
0000c0 a2 5b 20 bc 19 00 d3 bb 27 34 a1 3d 17 a4 9b 3a
       -0.009787472 -0.0064392206 0.078712754 0.0011874464
0000d0 f1 3a f6 3c f0 4c 6c 3d fd ba 71 3d 18 bd 82 bd
       0.030057402 0.05769056 0.059016217 -0.06383723
0000e0 41 4b b7 ba 86 8b ef 3b 05 4c e8 bc de 44 b5 3c
       -0.0013984219 0.0073103337 -0.028356561 0.022127565
0000f0 b4 5c b6 bb c3 b6 59 3d 92 54 b6 bd 56 b9 7f bd
       -0.0055652503 0.05315281 -0.08902849 -0.06243261
000100 8d 72 32 bd db d2 62 3d 08 54 1f 3c 09 ec e5 bc
       -0.043566275 0.05537687 0.009724624 -0.028066652
000110 43 5c 19 bc 14 7a 1d 3d 6e c9 30 bd 87 dd d9 bc
       -0.009360376 0.0384465 -0.04316085 -0.02659489
000120 28 92 3b bd e3 e6 45 3d 94 0c 4f bc d3 ed 81 3d
       -0.045793682 0.048315894 -0.012637276 0.063441895
000130 79 ca 40 3d 8a b3 32 3d bf 55 7c 3c 32 1d 04 bc
       0.047068093 0.043628253 0.015401303 -0.008063601
000140 ac bb 75 3d 6e 03 a2 bd 68 cd 01 3d 93 49 79 bd
       0.05999343 -0.079108104 0.03169003 -0.06086118
000150 20 6b b3 3c 91 eb 44 3d 5e 43 0b bc cf 22 b6 bc
       0.021901667 0.048076216 -0.008499948 -0.022233395
000160 42 26 14 3c 9e 3f 7b 3d 2f 70 51 bc 96 19 c7 bd
       0.0090423245 0.061339967 -0.012783094 -0.09721677
000170 a4 bc 99 3d 73 08 cc 3c bc c7 23 3d ee c8 10 3d
       0.075066835 0.024906373 0.039985403 0.03534787
000180 03 59 38 bc b6 26 24 bd 6b 87 df 3b 72 16 0b bd
       -0.011251691 -0.04007598 0.006821563 -0.033956952
000190 c7 bb 02 3c 30 e1 8e bc f6 5e 44 bd ba 89 63 bd
       0.00797934 -0.017441362 -0.047942124 -0.05555127
0001a0 33 bf 22 3d 0b 8b e1 bd 83 2d eb bc a0 50 05 bd
       0.039733123 -0.110128485 -0.028708225 -0.032547593
0001b0 94 13 36 bd 57 3e ce 3b 5e bf 85 3d 61 f9 f2 3b
       -0.044452265 0.0062940526 0.06530641 0.007414982
0001c0 90 d0 59 3d 5f 98 c8 bc 31 f2 74 3d a4 6e a2 3d
       0.053177416 -0.024486719 0.059801284 0.07931259
0001d0 84 50 bd bd 50 36 2f bd 4e b8 6d bd 20 8e 36 3d
       -0.09243873 -0.042776406 -0.058037095 0.044569135
0001e0 53 0f 1c 3d 69 9b ad 3c b3 4a 8a bd fa 52 cd bb
       0.03810055 0.02119227 -0.06752529 -0.006265995
0001f0 1c dd 9c 3d f9 ac 12 bd 61 fd 92 bd c6 cb 49 bd
       0.07659361 -0.03580949 -0.071772344 -0.0492666
000200 d5 4a a8 3c b6 ff e0 bb 2c 98 0d bb fd 2d 3d 3d
       0.020543495 -0.0068664206 -0.0021605594 0.046186436
000210 d4 ef 22 bd a0 e7 fe 3c 17 a1 be 3c df da 14 3d
       -0.0397795 0.031116307 0.023270173 0.036341544
000220 b6 91 5b bc bf 6c 6a 3d 3b f3 02 3d cd e3 b6 3d
       -0.013401439 0.057232615 0.031970244 0.08930168
000230 49 47 45 bd de ec 55 3b c2 10 e2 bc 91 1b 2e 3d
       -0.048163686 0.0032642405 -0.027595881 0.042506758
000240 95 bf 16 3d 5f c1 81 3d 97 b5 1f 3c b6 d2 4a 3b
       0.0368038 0.06335711 0.009747884 0.0030948347
000250 7c c9 ac bd 0e d0 b9 3c ca 69 d5 3c 99 e4 a7 bc
       -0.084368676 0.022682216 0.02605142 -0.020494746
000260 49 4d 86 3d 0e 45 67 bd 1d 33 ff bc 78 a8 e5 3c
       0.0655771 -0.05646234 -0.031152302 0.028034434
000270 84 11 a0 bc 42 d5 a1 bd a9 2f cc 3c f0 67 5e bd
       -0.019539602 -0.07902004 0.02492507 -0.05429834
000280 8b 37 bb bb af 25 bd bb 0a 67 38 bd 53 34 a9 be
       -0.0057134083 -0.0057723145 -0.04502014 -0.33047733
000290 9f 14 8c 3d 12 b5 89 bc 61 6d 6c bd bd 31 7d bd
       0.06839871 -0.016809974 -0.0577215 -0.061815012
0002a0 f3 5f 21 3d 58 02 54 bb b5 4e 94 3c 52 7b 18 3d
       0.039398145 -0.003235003 0.018103937 0.037226982
0002b0 f5 5e 60 3d 25 81 db bb b2 41 92 bc 81 6d 80 bd
       0.054778058 -0.006698745 -0.017853592 -0.06270886
0002c0 28 b4 a2 3b ed 8f 2e 3d fe a9 20 3d b6 57 26 3d
       0.004965324 0.042617727 0.039224617 0.04061099
0002d0 cd e8 91 3b 92 78 0b 3d 54 fa 76 3d 93 54 46 bd
       0.004452801 0.03405053 0.060297325 -0.0484205
0002e0 0a e1 f9 bc b0 54 8c 3c fe 38 33 3c d2 23 cd bc
       -0.030502815 0.017130226 0.010938881 -0.025041495
0002f0 9b e3 8d 3d ab d9 74 3c 5f 00 4f bc 97 ba fb 3c
       0.06928178 0.014944474 -0.012634366 0.030728621
000300 e9 97 29 3d 11 45 56 3d 51 cf 84 bc 1f 8c 1d bc
       0.04140464 0.05231196 -0.016212137 -0.009615927
000310 42 86 f4 bd bf 81 84 bd 72 9f 13 bd dd 61 0c 3c
       -0.1193967 -0.064700596 -0.03604073 0.008568254
000320 e5 75 1d 3d 3a d4 b5 3c 18 43 39 3d 55 fd 27 3c
       0.03844251 0.022195924 0.04523 0.01025327
000330 4c e9 cd 3c 31 11 01 3d c0 aa 37 bd ca f0 ca 3d
       0.025135659 0.031510536 -0.044840574 0.09909208
000340 b4 27 a1 3d c4 e0 89 3c 38 79 00 3d 17 b4 1a bd
       0.07868901 0.01683081 0.031365603 -0.037769403
000350 20 eb 31 3d 23 23 37 3d 6d d6 74 bd 9b 9c a9 bd
       0.043437123 0.044711243 -0.059774805 -0.08281823
000360 c5 36 2b 3b cc 6e d9 3b 25 e5 2e bd 83 c5 d8 3d
       0.0026125174 0.0066355225 -0.042698998 0.10584547
000370 d2 ec c8 bb 9e 03 b9 3d de e1 61 3d 87 ad 11 3d
       -0.006131747 0.09033893 0.055147044 0.03556588
000380 e9 fa 89 bd 0c 3a 75 3d 1f f9 ba 3d fd 6a 4e 3d
       -0.067373104 0.05986981 0.09129547 0.050395
000390 ee 5f 21 3d 08 00 15 bc 8f 4b 8d bd 20 48 6f 3d
       0.039398126 -0.009094246 -0.06899177 0.058418393
0003a0 91 60 25 bc 51 9a 16 bc da b1 d2 3c 8f 4e 4d 3d
       -0.010093824 -0.009192065 0.025719572 0.050123747
0003b0 c5 62 fc bc e9 62 9d 3c b9 36 1c 3c 25 d8 86 3d
       -0.030808816 0.019212203 0.009534531 0.06584195
0003c0 dc c5 85 3d 2e 74 63 3c 0a b1 22 3d 44 c9 8d 3c
       0.06531879 0.01388268 0.03971962 0.017307885
0003d0 de 00 0d bd c8 4a d0 bb ce 7e 11 bd 83 42 32 3d
       -0.034424655 -0.006356571 -0.03552132 0.04352046
0003e0 28 b6 85 bd 0e 91 32 bd c9 90 3a 3d 86 a3 84 bb
       -0.06528884 -0.043595366 0.045548234 -0.004047814
0003f0 83 8b e2 3d 39 3b 96 bb b9 54 a8 bd d9 63 d6 bc
       0.11061766 -0.0045846966 -0.082192846 -0.026170658

fca.weight f4 [1, 256]
000000 d0 4a 8d 3e 31 9c 96 3e a7 a1 e3 be d7 05 62 3e
       0.2759614 0.2941604 -0.44459268 0.2207254
000010 98 3a d5 3c f5 b0 b4 3e 51 f6 b6 be 94 19 74 bc
       0.026028916 0.35291258 -0.357348 -0.014898676
000020 ca d3 59 3c 15 3c 89 be 0d cb 61 3d bd 89 5f be
       0.013295123 -0.2680365 0.055125285 -0.21829887
000030 4e 75 1a bd 64 bd 4b 3e 17 2b e3 be 9d 50 97 be
       -0.037709527 0.19896466 -0.44368812 -0.2955369
000040 85 0f 78 bf 23 1b a0 be 57 65 88 bf 98 c4 81 3e
       -0.9689868 -0.31270704 -1.0655926 0.25345302
000050 32 58 15 be c4 69 43 3e e7 b5 2f 3f 2e ea 11 be
       -0.14584425 0.19083315 0.68636936 -0.14249489
000060 96 47 4f 3c 21 9a d7 3e ff 68 05 bf 71 ff 17 be
       0.012651345 0.4210978 -0.52113336 -0.14843537
000070 61 48 79 be 82 dc 81 3e 36 76 6e 3e 1c 0c d6 3e
       -0.24344017 0.25363547 0.23287281 0.41806114
000080 bf 96 ba 3e 49 bb e1 3d 3b 9e 5b bc 56 db 86 be
       0.36443135 0.1102205 -0.013404424 -0.26339215
000090 fa 26 a2 3d c1 74 6b bd be ad 10 3e 8f 3f 19 3e
       0.079175904 -0.057484392 0.14128777 0.14965652
0000a0 de 9d b7 bd 21 a1 70 3e 9b 18 5c bf 26 9f a5 be
       -0.08965658 0.23498966 -0.85975045 -0.32347983
0000b0 95 d6 55 3e d2 ec 31 3f ab 24 31 bc 55 d6 c8 3c
       0.20882638 0.69501984 -0.010811965 0.024516264
0000c0 b5 e8 5b be 6e 67 5b 3e d5 24 5a be cd 9e ae be
       -0.2147549 0.21426174 -0.21303113 -0.3410553
0000d0 fc 1b 04 bf 5d 28 1c bf 09 14 59 be 3a c0 00 3e
       -0.516052 -0.6099909 -0.21199049 0.12573329
0000e0 d6 c8 8c be d6 82 82 bf aa 92 fd bd bf 87 47 be
       -0.27496976 -1.0196178 -0.123814896 -0.19485377
0000f0 7f 75 91 be 2d 97 54 bf aa 54 30 3f e1 6a 94 3e
       -0.28409955 -0.83043176 0.6887919 0.28987792
000100 c6 01 64 3e 3a 6f 92 be 03 f5 1d 3e cb 6f 92 3e
       0.22266302 -0.28600484 0.15425496 0.28600916
000110 35 3f d4 3e 7f a9 29 3d 44 1e c4 3e 92 90 ce 3e
       0.41454473 0.04142141 0.3830434 0.40344673
000120 35 73 4d be 56 66 5b be 90 9b 6a be 2e c4 17 be
       -0.20063479 -0.21425757 -0.22910905 -0.1482093
000130 2d ea 86 bc 9b 38 5c be 8b 8e 10 be b0 28 98 40
       -0.016469086 -0.21505968 -0.14116876 4.7549667
000140 e1 32 2e be 82 99 0a 3e 20 98 58 bd 95 28 26 3d
       -0.17011596 0.13535121 -0.052879453 0.040566046
000150 00 69 2c 3e ad c6 d6 be f2 b2 f0 be 5f 04 80 be
       0.1683693 -0.41948453 -0.47011524 -0.25003335
000160 a4 d0 9f bd bc f6 d6 bd 73 6a 28 3e a1 8d 0c 3f
       -0.07803467 -0.104962796 0.16446857 0.5490361
000170 b2 6e c4 be 1f 84 90 3e 06 76 1c bf 30 19 9e 3e
       -0.38365704 0.282258 -0.6111759 0.30878592
000180 42 98 76 3e 02 41 26 3e 82 2f be bd 3e 39 97 be
       0.24081519 0.16235736 -0.09286405 -0.2953586
000190 a2 7e 03 bf fe f1 3c 3f 51 86 82 3d e8 1d ab 3e
       -0.513651 0.7380675 0.06373275 0.33421254
0001a0 18 ce 54 be 1b a7 01 3f a1 dc 6f 3e d6 80 81 3e
       -0.20781744 0.5064561 0.23424007 0.25293607
0001b0 d1 61 ad bd 8e 77 6e bd 18 37 e8 bd 60 38 9c be
       -0.084659226 -0.058219485 -0.11338633 -0.3051176
0001c0 39 4a 09 3e f9 f8 ae 3e 09 d2 fb be 16 2a a2 be
       0.1340722 0.34174326 -0.49183682 -0.31672734
0001d0 b2 a4 f8 3e 30 2d bb 3e c4 5f 85 3f 2a 9a 33 3e
       0.48563153 0.36557913 1.041985 0.17539278
0001e0 a8 c5 f8 3d d3 eb b7 bc 35 0d 13 bf db 07 b3 be
       0.12147075 -0.022451317 -0.5744203 -0.3496693
0001f0 d6 ab 8d 3f 5f 44 46 be f3 b0 f3 3e 12 dd 2b 3d
       1.1068065 -0.19362019 0.4759594 0.041958876
000200 0e c3 36 be 72 54 a8 3e f8 ba af 3e 06 e6 a4 3d
       -0.17847845 0.32876927 0.34322333 0.08051686
000210 24 f1 c4 3e 55 54 6c be e0 83 90 be 1c 6c 90 3e
       0.38465226 -0.23079045 -0.28225613 0.2820748
000220 99 01 e3 3d 94 6f 83 be 96 00 18 3e 46 a3 cd be
       0.11084289 -0.25671065 0.14843974 -0.4016363
000230 86 ae 13 be 5b c3 49 3d fa 03 3a be b2 64 f3 3d
       -0.14422044 0.04925857 -0.1816558 0.118844405
000240 34 a6 7a be 3f 82 36 bd 51 84 b4 be 69 14 73 3c
       -0.24477464 -0.044557806 -0.352572 0.014836409
000250 b8 0a 29 3e 02 15 1c bc a5 4e 55 3e 5c 38 4d 40
       0.16507995 -0.009526493 0.20830782 3.206565
000260 03 a8 19 be a2 02 18 3e e5 2c 1e bf cd 6e a4 3d
       -0.15005498 0.14844754 -0.61787254 0.08028946
000270 8e 56 05 bf 5a f7 ee 3e 00 be cc bc e3 5a d9 3c
       -0.52085197 0.4667309 -0.024992943 0.026532596
000280 5d 63 75 3e a3 c6 10 40 cb 48 00 3f 8d 18 7f c0
       0.23963685 2.2621238 0.50111073 -3.9858735
000290 63 a8 1b be 57 c9 ed 3e 7c c0 bd 3e 4c 29 b0 3e
       -0.15200953 0.46442673 0.37060916 0.34406507
0002a0 08 3c b7 3f f2 32 45 be 94 2c d3 3d ed d0 f0 3d
       1.4315195 -0.19257715 0.10311237 0.117585994
0002b0 44 9a 4a bd 83 47 b9 bd cb 47 d0 3e 0f 7e 57 3e
       -0.049463525 -0.09046843 0.40679774 0.21044181
0002c0 2e 0e 04 bf d2 15 40 3b b9 97 2e be 3f 2b 8a bd
       -0.51584136 0.002930988 -0.17050065 -0.0674653
0002d0 00 dd f2 3e 55 2b 99 be cc a5 04 bf 88 98 6f 3e
       0.47434235 -0.29915872 -0.51815486 0.2339803
0002e0 91 f3 85 bf e1 f0 aa 3e 3c 81 1c be 0c 9d b0 3c
       -1.0464956 0.333869 -0.15283674 0.02155926
0002f0 d5 63 5d be c3 d9 9b 3e 22 ac fa 3e 05 ca b5 be
       -0.21620114 0.30439577 0.48959452 -0.3550569
000300 aa 5f 73 be e1 e8 8d be aa e2 c2 be a1 e8 a7 3e
       -0.23766962 -0.27716735 -0.38063556 0.3279467
000310 fd ff 5a 3f d9 ef 86 3d 19 8c bb 3d 18 7b d7 be
       0.8554686 0.06588716 0.09157581 -0.420861
000320 df 7b 96 be a7 58 d8 bd 47 4b ab be 91 34 10 3d
       -0.2939138 -0.10563784 -0.3345587 0.03520638
000330 84 c5 f5 be 1c 13 fc be 7c 87 b1 3d 77 8f e7 be
       -0.48002255 -0.4923333 0.0866842 -0.45226642
000340 8d e5 9a be 15 d2 d6 be c3 73 4f 3d 32 d8 13 3e
       -0.30253258 -0.41957155 0.05064751 0.1443794
000350 c0 ea 12 3e f0 c2 5c be 7e c7 42 3f 1d 90 20 3f
       0.14347363 -0.21558738 0.7608565 0.627199
000360 d6 fc 5f 3e 3a 40 b8 be 9d 60 df 3e b4 c8 d3 3f
       0.21873793 -0.359865 0.43628398 1.6545625
000370 82 5f 9d bf d7 09 2f bf 16 6a 06 40 51 a0 08 3e
       -1.2294772 -0.6837439 2.100225 0.13342406
000380 c2 16 c4 3e af 3a 04 be 00 07 8d be 46 05 aa be
       0.38298613 -0.12913011 -0.27544403 -0.33207148
000390 33 a6 9b 3d 02 68 32 3f 30 bb df 3d 07 11 d4 3a
       0.07600059 0.69689953 0.10924375 0.0016179391
0003a0 85 0f 6a 3e fb 97 76 3e ba e4 07 bf 77 fb 9c 3b
       0.22857483 0.24081413 -0.53083384 0.004790719
0003b0 00 8a 11 bd 77 d7 cc 3e d0 be 30 bf 19 3c c8 be
       -0.035531998 0.40008137 -0.69041157 -0.3910835
0003c0 ef a7 9a be 92 af 4f 3e 7f 26 93 be e1 3c 4b be
       -0.30206248 0.20281819 -0.28740308 -0.19847442
0003d0 e6 41 72 3e 61 49 30 3e dc c4 c9 3e 1b 00 b6 bd
       0.23657951 0.17215492 0.39408004 -0.08886739
0003e0 84 e9 69 3e 55 4a b9 3d eb 21 1a be d4 c5 24 3f
       0.22842985 0.09047381 -0.15052001 0.6436436
0003f0 6e e2 c8 bf 4c 46 fe 3d 40 87 64 3e 4d ee 81 be
       -1.5694101 0.12415752 0.22317219 -0.25377122
